{"format": "graph-model", "generatedBy": "2.18.0", "convertedBy": "TensorFlow.js Converter v4.22.0", "signature": {"inputs": {"images": {"name": "images:0", "dtype": "DT_FLOAT", "tensorShape": {"dim": [{"size": "1"}, {"size": "320"}, {"size": "320"}, {"size": "3"}]}}}, "outputs": {"output0": {"name": "Identity:0", "dtype": "DT_FLOAT", "tensorShape": {"dim": [{"size": "1"}, {"size": "84"}, {"size": "2100"}]}}}}, "modelTopology": {"node": [{"name": "ConstantFolding/PartitionedCall/model_81/tf.math.divide_3/truediv_recip", "op": "Const", "attr": {"value": {"tensor": {"dtype": "DT_FLOAT", "tensorShape": {}}}, "dtype": {"type": "DT_FLOAT"}}}, {"name": "unknown_133", "op": "Const", "attr": {"value": {"tensor": {"dtype": "DT_INT64", "tensorShape": {"dim": [{"size": "3"}]}}}, "dtype": {"type": "DT_INT64"}}}, {"name": "unknown_134", "op": "Const", "attr": {"value": {"tensor": {"dtype": "DT_INT64", "tensorShape": {"dim": [{"size": "3"}]}}}, "dtype": {"type": "DT_INT64"}}}, {"name": "PartitionedCall/model_81/tf.strided_slice_84/ones_like", "op": "Const", "attr": {"value": {"tensor": {"dtype": "DT_INT64", "tensorShape": {"dim": [{"size": "3"}]}}}, "dtype": {"type": "DT_INT64"}}}, {"name": "unknown_137", "op": "Const", "attr": {"value": {"tensor": {"dtype": "DT_FLOAT", "tensorShape": {"dim": [{"size": "1"}, {"size": "2"}, {"size": "2100"}]}}}, "dtype": {"type": "DT_FLOAT"}}}, {"name": "unknown_138", "op": "Const", "attr": {"value": {"tensor": {"dtype": "DT_FLOAT", "tensorShape": {"dim": [{"size": "1"}, {"size": "2"}, {"size": "2100"}]}}}, "dtype": {"type": "DT_FLOAT"}}}, {"name": "PartitionedCall/model_81/tf.strided_slice_81/StridedSlice/begin", "op": "Const", "attr": {"value": {"tensor": {"dtype": "DT_INT32", "tensorShape": {"dim": [{"size": "3"}]}}}, "dtype": {"type": "DT_INT32"}}}, {"name": "PartitionedCall/model_81/tf.strided_slice_81/StridedSlice/end", "op": "Const", "attr": {"value": {"tensor": {"dtype": "DT_INT32", "tensorShape": {"dim": [{"size": "3"}]}}}, "dtype": {"type": "DT_INT32"}}}, {"name": "PartitionedCall/model_81/tf.strided_slice_81/ones_like", "op": "Const", "attr": {"value": {"tensor": {"dtype": "DT_INT32", "tensorShape": {"dim": [{"size": "3"}]}}}, "dtype": {"type": "DT_INT32"}}}, {"name": "PartitionedCall/model_81/tf.reshape_65/Reshape/shape", "op": "Const", "attr": {"value": {"tensor": {"dtype": "DT_INT32", "tensorShape": {"dim": [{"size": "4"}]}}}, "dtype": {"type": "DT_INT32"}}}, {"name": "PartitionedCall/model_81/tf.compat.v1.transpose_416/transpose/perm", "op": "Const", "attr": {"value": {"tensor": {"dtype": "DT_INT32", "tensorShape": {"dim": [{"size": "4"}]}}}, "dtype": {"type": "DT_INT32"}}}, {"name": "PartitionedCall/model_81/tf.compat.v1.transpose_417/transpose/perm", "op": "Const", "attr": {"value": {"tensor": {"dtype": "DT_INT32", "tensorShape": {"dim": [{"size": "4"}]}}}, "dtype": {"type": "DT_INT32"}}}, {"name": "unknown_132", "op": "Const", "attr": {"value": {"tensor": {"dtype": "DT_FLOAT", "tensorShape": {"dim": [{"size": "1"}, {"size": "1"}, {"size": "16"}, {"size": "1"}]}}}, "dtype": {"type": "DT_FLOAT"}}}, {"name": "PartitionedCall/model_81/tf.compat.v1.transpose_422/transpose/perm", "op": "Const", "attr": {"value": {"tensor": {"dtype": "DT_INT32", "tensorShape": {"dim": [{"size": "4"}]}}}, "dtype": {"type": "DT_INT32"}}}, {"name": "PartitionedCall/model_81/tf.reshape_68/Reshape/shape", "op": "Const", "attr": {"value": {"tensor": {"dtype": "DT_INT32", "tensorShape": {"dim": [{"size": "3"}]}}}, "dtype": {"type": "DT_INT32"}}}, {"name": "unknown_135", "op": "Const", "attr": {"value": {"tensor": {"dtype": "DT_INT64", "tensorShape": {"dim": [{"size": "3"}]}}}, "dtype": {"type": "DT_INT64"}}}, {"name": "unknown_136", "op": "Const", "attr": {"value": {"tensor": {"dtype": "DT_INT64", "tensorShape": {"dim": [{"size": "3"}]}}}, "dtype": {"type": "DT_INT64"}}}, {"name": "PartitionedCall/model_81/tf.strided_slice_83/ones_like", "op": "Const", "attr": {"value": {"tensor": {"dtype": "DT_INT64", "tensorShape": {"dim": [{"size": "3"}]}}}, "dtype": {"type": "DT_INT64"}}}, {"name": "PartitionedCall/model_81/tf.concat_86/concat/axis", "op": "Const", "attr": {"value": {"tensor": {"dtype": "DT_INT32", "tensorShape": {}}}, "dtype": {"type": "DT_INT32"}}}, {"name": "PartitionedCall/model_81/tf.math.multiply_1112/Mul/y", "op": "Const", "attr": {"value": {"tensor": {"dtype": "DT_FLOAT", "tensorShape": {"dim": [{"size": "1"}, {"size": "1"}, {"size": "2100"}]}}}, "dtype": {"type": "DT_FLOAT"}}}, {"name": "unknown_101", "op": "Const", "attr": {"value": {"tensor": {"dtype": "DT_FLOAT", "tensorShape": {"dim": [{"size": "3"}, {"size": "3"}, {"size": "64"}, {"size": "64"}]}}}, "dtype": {"type": "DT_FLOAT"}}}, {"name": "unknown_107", "op": "Const", "attr": {"value": {"tensor": {"dtype": "DT_FLOAT", "tensorShape": {"dim": [{"size": "64"}]}}}, "dtype": {"type": "DT_FLOAT"}}}, {"name": "unknown_113", "op": "Const", "attr": {"value": {"tensor": {"dtype": "DT_FLOAT", "tensorShape": {"dim": [{"size": "3"}, {"size": "3"}, {"size": "64"}, {"size": "64"}]}}}, "dtype": {"type": "DT_FLOAT"}}}, {"name": "unknown_119", "op": "Const", "attr": {"value": {"tensor": {"dtype": "DT_FLOAT", "tensorShape": {"dim": [{"size": "64"}]}}}, "dtype": {"type": "DT_FLOAT"}}}, {"name": "unknown_125", "op": "Const", "attr": {"value": {"tensor": {"dtype": "DT_FLOAT", "tensorShape": {"dim": [{"size": "1"}, {"size": "1"}, {"size": "64"}, {"size": "64"}]}}}, "dtype": {"type": "DT_FLOAT"}}}, {"name": "unknown_130", "op": "Const", "attr": {"value": {"tensor": {"dtype": "DT_FLOAT", "tensorShape": {"dim": [{"size": "64"}]}}}, "dtype": {"type": "DT_FLOAT"}}}, {"name": "unknown_100", "op": "Const", "attr": {"value": {"tensor": {"dtype": "DT_FLOAT", "tensorShape": {"dim": [{"size": "3"}, {"size": "3"}, {"size": "64"}, {"size": "80"}]}}}, "dtype": {"type": "DT_FLOAT"}}}, {"name": "unknown_106", "op": "Const", "attr": {"value": {"tensor": {"dtype": "DT_FLOAT", "tensorShape": {"dim": [{"size": "80"}]}}}, "dtype": {"type": "DT_FLOAT"}}}, {"name": "unknown_112", "op": "Const", "attr": {"value": {"tensor": {"dtype": "DT_FLOAT", "tensorShape": {"dim": [{"size": "3"}, {"size": "3"}, {"size": "80"}, {"size": "80"}]}}}, "dtype": {"type": "DT_FLOAT"}}}, {"name": "unknown_118", "op": "Const", "attr": {"value": {"tensor": {"dtype": "DT_FLOAT", "tensorShape": {"dim": [{"size": "80"}]}}}, "dtype": {"type": "DT_FLOAT"}}}, {"name": "unknown_124", "op": "Const", "attr": {"value": {"tensor": {"dtype": "DT_FLOAT", "tensorShape": {"dim": [{"size": "1"}, {"size": "1"}, {"size": "80"}, {"size": "80"}]}}}, "dtype": {"type": "DT_FLOAT"}}}, {"name": "unknown_131", "op": "Const", "attr": {"value": {"tensor": {"dtype": "DT_FLOAT", "tensorShape": {"dim": [{"size": "80"}]}}}, "dtype": {"type": "DT_FLOAT"}}}, {"name": "PartitionedCall/model_81/tf.concat_76/concat/axis", "op": "Const", "attr": {"value": {"tensor": {"dtype": "DT_INT32", "tensorShape": {}}}, "dtype": {"type": "DT_INT32"}}}, {"name": "PartitionedCall/model_81/tf.compat.v1.transpose_383/transpose/perm", "op": "Const", "attr": {"value": {"tensor": {"dtype": "DT_INT32", "tensorShape": {"dim": [{"size": "4"}]}}}, "dtype": {"type": "DT_INT32"}}}, {"name": "PartitionedCall/model_81/tf.reshape_56/Reshape/shape", "op": "Const", "attr": {"value": {"tensor": {"dtype": "DT_INT32", "tensorShape": {"dim": [{"size": "3"}]}}}, "dtype": {"type": "DT_INT32"}}}, {"name": "unknown_99", "op": "Const", "attr": {"value": {"tensor": {"dtype": "DT_FLOAT", "tensorShape": {"dim": [{"size": "3"}, {"size": "3"}, {"size": "128"}, {"size": "64"}]}}}, "dtype": {"type": "DT_FLOAT"}}}, {"name": "unknown_105", "op": "Const", "attr": {"value": {"tensor": {"dtype": "DT_FLOAT", "tensorShape": {"dim": [{"size": "64"}]}}}, "dtype": {"type": "DT_FLOAT"}}}, {"name": "unknown_111", "op": "Const", "attr": {"value": {"tensor": {"dtype": "DT_FLOAT", "tensorShape": {"dim": [{"size": "3"}, {"size": "3"}, {"size": "64"}, {"size": "64"}]}}}, "dtype": {"type": "DT_FLOAT"}}}, {"name": "unknown_117", "op": "Const", "attr": {"value": {"tensor": {"dtype": "DT_FLOAT", "tensorShape": {"dim": [{"size": "64"}]}}}, "dtype": {"type": "DT_FLOAT"}}}, {"name": "unknown_123", "op": "Const", "attr": {"value": {"tensor": {"dtype": "DT_FLOAT", "tensorShape": {"dim": [{"size": "1"}, {"size": "1"}, {"size": "64"}, {"size": "64"}]}}}, "dtype": {"type": "DT_FLOAT"}}}, {"name": "unknown_128", "op": "Const", "attr": {"value": {"tensor": {"dtype": "DT_FLOAT", "tensorShape": {"dim": [{"size": "64"}]}}}, "dtype": {"type": "DT_FLOAT"}}}, {"name": "unknown_98", "op": "Const", "attr": {"value": {"tensor": {"dtype": "DT_FLOAT", "tensorShape": {"dim": [{"size": "3"}, {"size": "3"}, {"size": "128"}, {"size": "80"}]}}}, "dtype": {"type": "DT_FLOAT"}}}, {"name": "unknown_104", "op": "Const", "attr": {"value": {"tensor": {"dtype": "DT_FLOAT", "tensorShape": {"dim": [{"size": "80"}]}}}, "dtype": {"type": "DT_FLOAT"}}}, {"name": "unknown_110", "op": "Const", "attr": {"value": {"tensor": {"dtype": "DT_FLOAT", "tensorShape": {"dim": [{"size": "3"}, {"size": "3"}, {"size": "80"}, {"size": "80"}]}}}, "dtype": {"type": "DT_FLOAT"}}}, {"name": "unknown_116", "op": "Const", "attr": {"value": {"tensor": {"dtype": "DT_FLOAT", "tensorShape": {"dim": [{"size": "80"}]}}}, "dtype": {"type": "DT_FLOAT"}}}, {"name": "unknown_122", "op": "Const", "attr": {"value": {"tensor": {"dtype": "DT_FLOAT", "tensorShape": {"dim": [{"size": "1"}, {"size": "1"}, {"size": "80"}, {"size": "80"}]}}}, "dtype": {"type": "DT_FLOAT"}}}, {"name": "unknown_129", "op": "Const", "attr": {"value": {"tensor": {"dtype": "DT_FLOAT", "tensorShape": {"dim": [{"size": "80"}]}}}, "dtype": {"type": "DT_FLOAT"}}}, {"name": "PartitionedCall/model_81/tf.concat_79/concat/axis", "op": "Const", "attr": {"value": {"tensor": {"dtype": "DT_INT32", "tensorShape": {}}}, "dtype": {"type": "DT_INT32"}}}, {"name": "PartitionedCall/model_81/tf.compat.v1.transpose_397/transpose/perm", "op": "Const", "attr": {"value": {"tensor": {"dtype": "DT_INT32", "tensorShape": {"dim": [{"size": "4"}]}}}, "dtype": {"type": "DT_INT32"}}}, {"name": "PartitionedCall/model_81/tf.reshape_59/Reshape/shape", "op": "Const", "attr": {"value": {"tensor": {"dtype": "DT_INT32", "tensorShape": {"dim": [{"size": "3"}]}}}, "dtype": {"type": "DT_INT32"}}}, {"name": "unknown_97", "op": "Const", "attr": {"value": {"tensor": {"dtype": "DT_FLOAT", "tensorShape": {"dim": [{"size": "3"}, {"size": "3"}, {"size": "256"}, {"size": "64"}]}}}, "dtype": {"type": "DT_FLOAT"}}}, {"name": "unknown_103", "op": "Const", "attr": {"value": {"tensor": {"dtype": "DT_FLOAT", "tensorShape": {"dim": [{"size": "64"}]}}}, "dtype": {"type": "DT_FLOAT"}}}, {"name": "unknown_109", "op": "Const", "attr": {"value": {"tensor": {"dtype": "DT_FLOAT", "tensorShape": {"dim": [{"size": "3"}, {"size": "3"}, {"size": "64"}, {"size": "64"}]}}}, "dtype": {"type": "DT_FLOAT"}}}, {"name": "unknown_115", "op": "Const", "attr": {"value": {"tensor": {"dtype": "DT_FLOAT", "tensorShape": {"dim": [{"size": "64"}]}}}, "dtype": {"type": "DT_FLOAT"}}}, {"name": "unknown_121", "op": "Const", "attr": {"value": {"tensor": {"dtype": "DT_FLOAT", "tensorShape": {"dim": [{"size": "1"}, {"size": "1"}, {"size": "64"}, {"size": "64"}]}}}, "dtype": {"type": "DT_FLOAT"}}}, {"name": "unknown_126", "op": "Const", "attr": {"value": {"tensor": {"dtype": "DT_FLOAT", "tensorShape": {"dim": [{"size": "64"}]}}}, "dtype": {"type": "DT_FLOAT"}}}, {"name": "PartitionedCall/model_81/tf.strided_slice_79/StridedSlice/begin", "op": "Const", "attr": {"value": {"tensor": {"dtype": "DT_INT32", "tensorShape": {"dim": [{"size": "4"}]}}}, "dtype": {"type": "DT_INT32"}}}, {"name": "PartitionedCall/model_81/tf.strided_slice_79/StridedSlice/end", "op": "Const", "attr": {"value": {"tensor": {"dtype": "DT_INT32", "tensorShape": {"dim": [{"size": "4"}]}}}, "dtype": {"type": "DT_INT32"}}}, {"name": "PartitionedCall/model_81/tf.strided_slice_79/ones_like", "op": "Const", "attr": {"value": {"tensor": {"dtype": "DT_INT32", "tensorShape": {"dim": [{"size": "4"}]}}}, "dtype": {"type": "DT_INT32"}}}, {"name": "PartitionedCall/model_81/tf.strided_slice_77/StridedSlice/begin", "op": "Const", "attr": {"value": {"tensor": {"dtype": "DT_INT32", "tensorShape": {"dim": [{"size": "4"}]}}}, "dtype": {"type": "DT_INT32"}}}, {"name": "PartitionedCall/model_81/tf.strided_slice_77/StridedSlice/end", "op": "Const", "attr": {"value": {"tensor": {"dtype": "DT_INT32", "tensorShape": {"dim": [{"size": "4"}]}}}, "dtype": {"type": "DT_INT32"}}}, {"name": "PartitionedCall/model_81/tf.strided_slice_77/ones_like", "op": "Const", "attr": {"value": {"tensor": {"dtype": "DT_INT32", "tensorShape": {"dim": [{"size": "4"}]}}}, "dtype": {"type": "DT_INT32"}}}, {"name": "PartitionedCall/model_81/tf.strided_slice_75/StridedSlice/begin", "op": "Const", "attr": {"value": {"tensor": {"dtype": "DT_INT32", "tensorShape": {"dim": [{"size": "4"}]}}}, "dtype": {"type": "DT_INT32"}}}, {"name": "PartitionedCall/model_81/tf.strided_slice_75/StridedSlice/end", "op": "Const", "attr": {"value": {"tensor": {"dtype": "DT_INT32", "tensorShape": {"dim": [{"size": "4"}]}}}, "dtype": {"type": "DT_INT32"}}}, {"name": "PartitionedCall/model_81/tf.strided_slice_75/ones_like", "op": "Const", "attr": {"value": {"tensor": {"dtype": "DT_INT32", "tensorShape": {"dim": [{"size": "4"}]}}}, "dtype": {"type": "DT_INT32"}}}, {"name": "PartitionedCall/model_81/tf.image.resize_7/resize/size", "op": "Const", "attr": {"value": {"tensor": {"dtype": "DT_INT32", "tensorShape": {"dim": [{"size": "2"}]}}}, "dtype": {"type": "DT_INT32"}}}, {"name": "PartitionedCall/model_81/tf.concat_73/concat/axis", "op": "Const", "attr": {"value": {"tensor": {"dtype": "DT_INT32", "tensorShape": {}}}, "dtype": {"type": "DT_INT32"}}}, {"name": "unknown_66", "op": "Const", "attr": {"value": {"tensor": {"dtype": "DT_FLOAT", "tensorShape": {"dim": [{"size": "1"}, {"size": "1"}, {"size": "192"}, {"size": "64"}]}}}, "dtype": {"type": "DT_FLOAT"}}}, {"name": "unknown_67", "op": "Const", "attr": {"value": {"tensor": {"dtype": "DT_FLOAT", "tensorShape": {"dim": [{"size": "64"}]}}}, "dtype": {"type": "DT_FLOAT"}}}, {"name": "PartitionedCall/model_81/tf.strided_slice_76/StridedSlice/begin", "op": "Const", "attr": {"value": {"tensor": {"dtype": "DT_INT32", "tensorShape": {"dim": [{"size": "4"}]}}}, "dtype": {"type": "DT_INT32"}}}, {"name": "PartitionedCall/model_81/tf.strided_slice_76/StridedSlice/end", "op": "Const", "attr": {"value": {"tensor": {"dtype": "DT_INT32", "tensorShape": {"dim": [{"size": "4"}]}}}, "dtype": {"type": "DT_INT32"}}}, {"name": "PartitionedCall/model_81/tf.strided_slice_76/ones_like", "op": "Const", "attr": {"value": {"tensor": {"dtype": "DT_INT32", "tensorShape": {"dim": [{"size": "4"}]}}}, "dtype": {"type": "DT_INT32"}}}, {"name": "unknown_68", "op": "Const", "attr": {"value": {"tensor": {"dtype": "DT_FLOAT", "tensorShape": {"dim": [{"size": "3"}, {"size": "3"}, {"size": "32"}, {"size": "32"}]}}}, "dtype": {"type": "DT_FLOAT"}}}, {"name": "unknown_69", "op": "Const", "attr": {"value": {"tensor": {"dtype": "DT_FLOAT", "tensorShape": {"dim": [{"size": "32"}]}}}, "dtype": {"type": "DT_FLOAT"}}}, {"name": "unknown_70", "op": "Const", "attr": {"value": {"tensor": {"dtype": "DT_FLOAT", "tensorShape": {"dim": [{"size": "3"}, {"size": "3"}, {"size": "32"}, {"size": "32"}]}}}, "dtype": {"type": "DT_FLOAT"}}}, {"name": "unknown_71", "op": "Const", "attr": {"value": {"tensor": {"dtype": "DT_FLOAT", "tensorShape": {"dim": [{"size": "32"}]}}}, "dtype": {"type": "DT_FLOAT"}}}, {"name": "PartitionedCall/model_81/tf.concat_74/concat/axis", "op": "Const", "attr": {"value": {"tensor": {"dtype": "DT_INT32", "tensorShape": {}}}, "dtype": {"type": "DT_INT32"}}}, {"name": "unknown_72", "op": "Const", "attr": {"value": {"tensor": {"dtype": "DT_FLOAT", "tensorShape": {"dim": [{"size": "1"}, {"size": "1"}, {"size": "96"}, {"size": "64"}]}}}, "dtype": {"type": "DT_FLOAT"}}}, {"name": "unknown_73", "op": "Const", "attr": {"value": {"tensor": {"dtype": "DT_FLOAT", "tensorShape": {"dim": [{"size": "64"}]}}}, "dtype": {"type": "DT_FLOAT"}}}, {"name": "unknown_74", "op": "Const", "attr": {"value": {"tensor": {"dtype": "DT_INT32", "tensorShape": {"dim": [{"size": "4"}, {"size": "2"}]}}}, "dtype": {"type": "DT_INT32"}}}, {"name": "unknown_75", "op": "Const", "attr": {"value": {"tensor": {"dtype": "DT_FLOAT", "tensorShape": {"dim": [{"size": "3"}, {"size": "3"}, {"size": "64"}, {"size": "64"}]}}}, "dtype": {"type": "DT_FLOAT"}}}, {"name": "unknown_76", "op": "Const", "attr": {"value": {"tensor": {"dtype": "DT_FLOAT", "tensorShape": {"dim": [{"size": "64"}]}}}, "dtype": {"type": "DT_FLOAT"}}}, {"name": "PartitionedCall/model_81/tf.strided_slice_73/StridedSlice/begin", "op": "Const", "attr": {"value": {"tensor": {"dtype": "DT_INT32", "tensorShape": {"dim": [{"size": "4"}]}}}, "dtype": {"type": "DT_INT32"}}}, {"name": "PartitionedCall/model_81/tf.strided_slice_73/StridedSlice/end", "op": "Const", "attr": {"value": {"tensor": {"dtype": "DT_INT32", "tensorShape": {"dim": [{"size": "4"}]}}}, "dtype": {"type": "DT_INT32"}}}, {"name": "PartitionedCall/model_81/tf.strided_slice_73/ones_like", "op": "Const", "attr": {"value": {"tensor": {"dtype": "DT_INT32", "tensorShape": {"dim": [{"size": "4"}]}}}, "dtype": {"type": "DT_INT32"}}}, {"name": "PartitionedCall/model_81/tf.image.resize_6/resize/size", "op": "Const", "attr": {"value": {"tensor": {"dtype": "DT_INT32", "tensorShape": {"dim": [{"size": "2"}]}}}, "dtype": {"type": "DT_INT32"}}}, {"name": "PartitionedCall/model_81/tf.concat_71/concat/axis", "op": "Const", "attr": {"value": {"tensor": {"dtype": "DT_INT32", "tensorShape": {}}}, "dtype": {"type": "DT_INT32"}}}, {"name": "unknown_58", "op": "Const", "attr": {"value": {"tensor": {"dtype": "DT_FLOAT", "tensorShape": {"dim": [{"size": "1"}, {"size": "1"}, {"size": "384"}, {"size": "128"}]}}}, "dtype": {"type": "DT_FLOAT"}}}, {"name": "unknown_59", "op": "Const", "attr": {"value": {"tensor": {"dtype": "DT_FLOAT", "tensorShape": {"dim": [{"size": "128"}]}}}, "dtype": {"type": "DT_FLOAT"}}}, {"name": "PartitionedCall/model_81/tf.strided_slice_74/StridedSlice/begin", "op": "Const", "attr": {"value": {"tensor": {"dtype": "DT_INT32", "tensorShape": {"dim": [{"size": "4"}]}}}, "dtype": {"type": "DT_INT32"}}}, {"name": "PartitionedCall/model_81/tf.strided_slice_74/StridedSlice/end", "op": "Const", "attr": {"value": {"tensor": {"dtype": "DT_INT32", "tensorShape": {"dim": [{"size": "4"}]}}}, "dtype": {"type": "DT_INT32"}}}, {"name": "PartitionedCall/model_81/tf.strided_slice_74/ones_like", "op": "Const", "attr": {"value": {"tensor": {"dtype": "DT_INT32", "tensorShape": {"dim": [{"size": "4"}]}}}, "dtype": {"type": "DT_INT32"}}}, {"name": "unknown_60", "op": "Const", "attr": {"value": {"tensor": {"dtype": "DT_FLOAT", "tensorShape": {"dim": [{"size": "3"}, {"size": "3"}, {"size": "64"}, {"size": "64"}]}}}, "dtype": {"type": "DT_FLOAT"}}}, {"name": "unknown_61", "op": "Const", "attr": {"value": {"tensor": {"dtype": "DT_FLOAT", "tensorShape": {"dim": [{"size": "64"}]}}}, "dtype": {"type": "DT_FLOAT"}}}, {"name": "unknown_62", "op": "Const", "attr": {"value": {"tensor": {"dtype": "DT_FLOAT", "tensorShape": {"dim": [{"size": "3"}, {"size": "3"}, {"size": "64"}, {"size": "64"}]}}}, "dtype": {"type": "DT_FLOAT"}}}, {"name": "unknown_63", "op": "Const", "attr": {"value": {"tensor": {"dtype": "DT_FLOAT", "tensorShape": {"dim": [{"size": "64"}]}}}, "dtype": {"type": "DT_FLOAT"}}}, {"name": "PartitionedCall/model_81/tf.concat_72/concat/axis", "op": "Const", "attr": {"value": {"tensor": {"dtype": "DT_INT32", "tensorShape": {}}}, "dtype": {"type": "DT_INT32"}}}, {"name": "unknown_64", "op": "Const", "attr": {"value": {"tensor": {"dtype": "DT_FLOAT", "tensorShape": {"dim": [{"size": "1"}, {"size": "1"}, {"size": "192"}, {"size": "128"}]}}}, "dtype": {"type": "DT_FLOAT"}}}, {"name": "unknown_65", "op": "Const", "attr": {"value": {"tensor": {"dtype": "DT_FLOAT", "tensorShape": {"dim": [{"size": "128"}]}}}, "dtype": {"type": "DT_FLOAT"}}}, {"name": "PartitionedCall/model_81/tf.concat_75/concat/axis", "op": "Const", "attr": {"value": {"tensor": {"dtype": "DT_INT32", "tensorShape": {}}}, "dtype": {"type": "DT_INT32"}}}, {"name": "unknown_77", "op": "Const", "attr": {"value": {"tensor": {"dtype": "DT_FLOAT", "tensorShape": {"dim": [{"size": "1"}, {"size": "1"}, {"size": "192"}, {"size": "128"}]}}}, "dtype": {"type": "DT_FLOAT"}}}, {"name": "unknown_78", "op": "Const", "attr": {"value": {"tensor": {"dtype": "DT_FLOAT", "tensorShape": {"dim": [{"size": "128"}]}}}, "dtype": {"type": "DT_FLOAT"}}}, {"name": "PartitionedCall/model_81/tf.strided_slice_78/StridedSlice/begin", "op": "Const", "attr": {"value": {"tensor": {"dtype": "DT_INT32", "tensorShape": {"dim": [{"size": "4"}]}}}, "dtype": {"type": "DT_INT32"}}}, {"name": "PartitionedCall/model_81/tf.strided_slice_78/StridedSlice/end", "op": "Const", "attr": {"value": {"tensor": {"dtype": "DT_INT32", "tensorShape": {"dim": [{"size": "4"}]}}}, "dtype": {"type": "DT_INT32"}}}, {"name": "PartitionedCall/model_81/tf.strided_slice_78/ones_like", "op": "Const", "attr": {"value": {"tensor": {"dtype": "DT_INT32", "tensorShape": {"dim": [{"size": "4"}]}}}, "dtype": {"type": "DT_INT32"}}}, {"name": "unknown_79", "op": "Const", "attr": {"value": {"tensor": {"dtype": "DT_FLOAT", "tensorShape": {"dim": [{"size": "3"}, {"size": "3"}, {"size": "64"}, {"size": "64"}]}}}, "dtype": {"type": "DT_FLOAT"}}}, {"name": "unknown_80", "op": "Const", "attr": {"value": {"tensor": {"dtype": "DT_FLOAT", "tensorShape": {"dim": [{"size": "64"}]}}}, "dtype": {"type": "DT_FLOAT"}}}, {"name": "unknown_81", "op": "Const", "attr": {"value": {"tensor": {"dtype": "DT_FLOAT", "tensorShape": {"dim": [{"size": "3"}, {"size": "3"}, {"size": "64"}, {"size": "64"}]}}}, "dtype": {"type": "DT_FLOAT"}}}, {"name": "unknown_82", "op": "Const", "attr": {"value": {"tensor": {"dtype": "DT_FLOAT", "tensorShape": {"dim": [{"size": "64"}]}}}, "dtype": {"type": "DT_FLOAT"}}}, {"name": "PartitionedCall/model_81/tf.concat_77/concat/axis", "op": "Const", "attr": {"value": {"tensor": {"dtype": "DT_INT32", "tensorShape": {}}}, "dtype": {"type": "DT_INT32"}}}, {"name": "unknown_83", "op": "Const", "attr": {"value": {"tensor": {"dtype": "DT_FLOAT", "tensorShape": {"dim": [{"size": "1"}, {"size": "1"}, {"size": "192"}, {"size": "128"}]}}}, "dtype": {"type": "DT_FLOAT"}}}, {"name": "unknown_84", "op": "Const", "attr": {"value": {"tensor": {"dtype": "DT_FLOAT", "tensorShape": {"dim": [{"size": "128"}]}}}, "dtype": {"type": "DT_FLOAT"}}}, {"name": "unknown_85", "op": "Const", "attr": {"value": {"tensor": {"dtype": "DT_INT32", "tensorShape": {"dim": [{"size": "4"}, {"size": "2"}]}}}, "dtype": {"type": "DT_INT32"}}}, {"name": "unknown_86", "op": "Const", "attr": {"value": {"tensor": {"dtype": "DT_FLOAT", "tensorShape": {"dim": [{"size": "3"}, {"size": "3"}, {"size": "128"}, {"size": "128"}]}}}, "dtype": {"type": "DT_FLOAT"}}}, {"name": "unknown_87", "op": "Const", "attr": {"value": {"tensor": {"dtype": "DT_FLOAT", "tensorShape": {"dim": [{"size": "128"}]}}}, "dtype": {"type": "DT_FLOAT"}}}, {"name": "PartitionedCall/model_81/tf.strided_slice_71/StridedSlice/begin", "op": "Const", "attr": {"value": {"tensor": {"dtype": "DT_INT32", "tensorShape": {"dim": [{"size": "4"}]}}}, "dtype": {"type": "DT_INT32"}}}, {"name": "PartitionedCall/model_81/tf.strided_slice_71/StridedSlice/end", "op": "Const", "attr": {"value": {"tensor": {"dtype": "DT_INT32", "tensorShape": {"dim": [{"size": "4"}]}}}, "dtype": {"type": "DT_INT32"}}}, {"name": "PartitionedCall/model_81/tf.strided_slice_71/ones_like", "op": "Const", "attr": {"value": {"tensor": {"dtype": "DT_INT32", "tensorShape": {"dim": [{"size": "4"}]}}}, "dtype": {"type": "DT_INT32"}}}, {"name": "PartitionedCall/model_81/tf.strided_slice_69/StridedSlice/begin", "op": "Const", "attr": {"value": {"tensor": {"dtype": "DT_INT32", "tensorShape": {"dim": [{"size": "4"}]}}}, "dtype": {"type": "DT_INT32"}}}, {"name": "PartitionedCall/model_81/tf.strided_slice_69/StridedSlice/end", "op": "Const", "attr": {"value": {"tensor": {"dtype": "DT_INT32", "tensorShape": {"dim": [{"size": "4"}]}}}, "dtype": {"type": "DT_INT32"}}}, {"name": "PartitionedCall/model_81/tf.strided_slice_69/ones_like", "op": "Const", "attr": {"value": {"tensor": {"dtype": "DT_INT32", "tensorShape": {"dim": [{"size": "4"}]}}}, "dtype": {"type": "DT_INT32"}}}, {"name": "PartitionedCall/model_81/tf.strided_slice_67/StridedSlice/begin", "op": "Const", "attr": {"value": {"tensor": {"dtype": "DT_INT32", "tensorShape": {"dim": [{"size": "4"}]}}}, "dtype": {"type": "DT_INT32"}}}, {"name": "PartitionedCall/model_81/tf.strided_slice_67/StridedSlice/end", "op": "Const", "attr": {"value": {"tensor": {"dtype": "DT_INT32", "tensorShape": {"dim": [{"size": "4"}]}}}, "dtype": {"type": "DT_INT32"}}}, {"name": "PartitionedCall/model_81/tf.strided_slice_67/ones_like", "op": "Const", "attr": {"value": {"tensor": {"dtype": "DT_INT32", "tensorShape": {"dim": [{"size": "4"}]}}}, "dtype": {"type": "DT_INT32"}}}, {"name": "PartitionedCall/model_81/tf.strided_slice_65/StridedSlice/begin", "op": "Const", "attr": {"value": {"tensor": {"dtype": "DT_INT32", "tensorShape": {"dim": [{"size": "4"}]}}}, "dtype": {"type": "DT_INT32"}}}, {"name": "PartitionedCall/model_81/tf.strided_slice_65/StridedSlice/end", "op": "Const", "attr": {"value": {"tensor": {"dtype": "DT_INT32", "tensorShape": {"dim": [{"size": "4"}]}}}, "dtype": {"type": "DT_INT32"}}}, {"name": "PartitionedCall/model_81/tf.strided_slice_65/ones_like", "op": "Const", "attr": {"value": {"tensor": {"dtype": "DT_INT32", "tensorShape": {"dim": [{"size": "4"}]}}}, "dtype": {"type": "DT_INT32"}}}, {"name": "unknown", "op": "Const", "attr": {"value": {"tensor": {"dtype": "DT_INT32", "tensorShape": {"dim": [{"size": "4"}, {"size": "2"}]}}}, "dtype": {"type": "DT_INT32"}}}, {"name": "unknown_0", "op": "Const", "attr": {"value": {"tensor": {"dtype": "DT_FLOAT", "tensorShape": {"dim": [{"size": "3"}, {"size": "3"}, {"size": "3"}, {"size": "16"}]}}}, "dtype": {"type": "DT_FLOAT"}}}, {"name": "unknown_1", "op": "Const", "attr": {"value": {"tensor": {"dtype": "DT_FLOAT", "tensorShape": {"dim": [{"size": "16"}]}}}, "dtype": {"type": "DT_FLOAT"}}}, {"name": "unknown_2", "op": "Const", "attr": {"value": {"tensor": {"dtype": "DT_INT32", "tensorShape": {"dim": [{"size": "4"}, {"size": "2"}]}}}, "dtype": {"type": "DT_INT32"}}}, {"name": "unknown_3", "op": "Const", "attr": {"value": {"tensor": {"dtype": "DT_FLOAT", "tensorShape": {"dim": [{"size": "3"}, {"size": "3"}, {"size": "16"}, {"size": "32"}]}}}, "dtype": {"type": "DT_FLOAT"}}}, {"name": "unknown_4", "op": "Const", "attr": {"value": {"tensor": {"dtype": "DT_FLOAT", "tensorShape": {"dim": [{"size": "32"}]}}}, "dtype": {"type": "DT_FLOAT"}}}, {"name": "unknown_5", "op": "Const", "attr": {"value": {"tensor": {"dtype": "DT_FLOAT", "tensorShape": {"dim": [{"size": "1"}, {"size": "1"}, {"size": "32"}, {"size": "32"}]}}}, "dtype": {"type": "DT_FLOAT"}}}, {"name": "unknown_6", "op": "Const", "attr": {"value": {"tensor": {"dtype": "DT_FLOAT", "tensorShape": {"dim": [{"size": "32"}]}}}, "dtype": {"type": "DT_FLOAT"}}}, {"name": "PartitionedCall/model_81/tf.strided_slice_66/StridedSlice/begin", "op": "Const", "attr": {"value": {"tensor": {"dtype": "DT_INT32", "tensorShape": {"dim": [{"size": "4"}]}}}, "dtype": {"type": "DT_INT32"}}}, {"name": "PartitionedCall/model_81/tf.strided_slice_66/StridedSlice/end", "op": "Const", "attr": {"value": {"tensor": {"dtype": "DT_INT32", "tensorShape": {"dim": [{"size": "4"}]}}}, "dtype": {"type": "DT_INT32"}}}, {"name": "PartitionedCall/model_81/tf.strided_slice_66/ones_like", "op": "Const", "attr": {"value": {"tensor": {"dtype": "DT_INT32", "tensorShape": {"dim": [{"size": "4"}]}}}, "dtype": {"type": "DT_INT32"}}}, {"name": "unknown_7", "op": "Const", "attr": {"value": {"tensor": {"dtype": "DT_FLOAT", "tensorShape": {"dim": [{"size": "3"}, {"size": "3"}, {"size": "16"}, {"size": "16"}]}}}, "dtype": {"type": "DT_FLOAT"}}}, {"name": "unknown_8", "op": "Const", "attr": {"value": {"tensor": {"dtype": "DT_FLOAT", "tensorShape": {"dim": [{"size": "16"}]}}}, "dtype": {"type": "DT_FLOAT"}}}, {"name": "unknown_9", "op": "Const", "attr": {"value": {"tensor": {"dtype": "DT_FLOAT", "tensorShape": {"dim": [{"size": "3"}, {"size": "3"}, {"size": "16"}, {"size": "16"}]}}}, "dtype": {"type": "DT_FLOAT"}}}, {"name": "unknown_10", "op": "Const", "attr": {"value": {"tensor": {"dtype": "DT_FLOAT", "tensorShape": {"dim": [{"size": "16"}]}}}, "dtype": {"type": "DT_FLOAT"}}}, {"name": "PartitionedCall/model_81/tf.concat_66/concat/axis", "op": "Const", "attr": {"value": {"tensor": {"dtype": "DT_INT32", "tensorShape": {}}}, "dtype": {"type": "DT_INT32"}}}, {"name": "unknown_11", "op": "Const", "attr": {"value": {"tensor": {"dtype": "DT_FLOAT", "tensorShape": {"dim": [{"size": "1"}, {"size": "1"}, {"size": "48"}, {"size": "32"}]}}}, "dtype": {"type": "DT_FLOAT"}}}, {"name": "unknown_12", "op": "Const", "attr": {"value": {"tensor": {"dtype": "DT_FLOAT", "tensorShape": {"dim": [{"size": "32"}]}}}, "dtype": {"type": "DT_FLOAT"}}}, {"name": "unknown_13", "op": "Const", "attr": {"value": {"tensor": {"dtype": "DT_INT32", "tensorShape": {"dim": [{"size": "4"}, {"size": "2"}]}}}, "dtype": {"type": "DT_INT32"}}}, {"name": "unknown_14", "op": "Const", "attr": {"value": {"tensor": {"dtype": "DT_FLOAT", "tensorShape": {"dim": [{"size": "3"}, {"size": "3"}, {"size": "32"}, {"size": "64"}]}}}, "dtype": {"type": "DT_FLOAT"}}}, {"name": "unknown_15", "op": "Const", "attr": {"value": {"tensor": {"dtype": "DT_FLOAT", "tensorShape": {"dim": [{"size": "64"}]}}}, "dtype": {"type": "DT_FLOAT"}}}, {"name": "unknown_16", "op": "Const", "attr": {"value": {"tensor": {"dtype": "DT_FLOAT", "tensorShape": {"dim": [{"size": "1"}, {"size": "1"}, {"size": "64"}, {"size": "64"}]}}}, "dtype": {"type": "DT_FLOAT"}}}, {"name": "unknown_17", "op": "Const", "attr": {"value": {"tensor": {"dtype": "DT_FLOAT", "tensorShape": {"dim": [{"size": "64"}]}}}, "dtype": {"type": "DT_FLOAT"}}}, {"name": "PartitionedCall/model_81/tf.strided_slice_68/StridedSlice/begin", "op": "Const", "attr": {"value": {"tensor": {"dtype": "DT_INT32", "tensorShape": {"dim": [{"size": "4"}]}}}, "dtype": {"type": "DT_INT32"}}}, {"name": "PartitionedCall/model_81/tf.strided_slice_68/StridedSlice/end", "op": "Const", "attr": {"value": {"tensor": {"dtype": "DT_INT32", "tensorShape": {"dim": [{"size": "4"}]}}}, "dtype": {"type": "DT_INT32"}}}, {"name": "PartitionedCall/model_81/tf.strided_slice_68/ones_like", "op": "Const", "attr": {"value": {"tensor": {"dtype": "DT_INT32", "tensorShape": {"dim": [{"size": "4"}]}}}, "dtype": {"type": "DT_INT32"}}}, {"name": "unknown_18", "op": "Const", "attr": {"value": {"tensor": {"dtype": "DT_FLOAT", "tensorShape": {"dim": [{"size": "3"}, {"size": "3"}, {"size": "32"}, {"size": "32"}]}}}, "dtype": {"type": "DT_FLOAT"}}}, {"name": "unknown_19", "op": "Const", "attr": {"value": {"tensor": {"dtype": "DT_FLOAT", "tensorShape": {"dim": [{"size": "32"}]}}}, "dtype": {"type": "DT_FLOAT"}}}, {"name": "unknown_20", "op": "Const", "attr": {"value": {"tensor": {"dtype": "DT_FLOAT", "tensorShape": {"dim": [{"size": "3"}, {"size": "3"}, {"size": "32"}, {"size": "32"}]}}}, "dtype": {"type": "DT_FLOAT"}}}, {"name": "unknown_21", "op": "Const", "attr": {"value": {"tensor": {"dtype": "DT_FLOAT", "tensorShape": {"dim": [{"size": "32"}]}}}, "dtype": {"type": "DT_FLOAT"}}}, {"name": "unknown_22", "op": "Const", "attr": {"value": {"tensor": {"dtype": "DT_FLOAT", "tensorShape": {"dim": [{"size": "3"}, {"size": "3"}, {"size": "32"}, {"size": "32"}]}}}, "dtype": {"type": "DT_FLOAT"}}}, {"name": "unknown_23", "op": "Const", "attr": {"value": {"tensor": {"dtype": "DT_FLOAT", "tensorShape": {"dim": [{"size": "32"}]}}}, "dtype": {"type": "DT_FLOAT"}}}, {"name": "unknown_24", "op": "Const", "attr": {"value": {"tensor": {"dtype": "DT_FLOAT", "tensorShape": {"dim": [{"size": "3"}, {"size": "3"}, {"size": "32"}, {"size": "32"}]}}}, "dtype": {"type": "DT_FLOAT"}}}, {"name": "unknown_25", "op": "Const", "attr": {"value": {"tensor": {"dtype": "DT_FLOAT", "tensorShape": {"dim": [{"size": "32"}]}}}, "dtype": {"type": "DT_FLOAT"}}}, {"name": "PartitionedCall/model_81/tf.concat_67/concat/axis", "op": "Const", "attr": {"value": {"tensor": {"dtype": "DT_INT32", "tensorShape": {}}}, "dtype": {"type": "DT_INT32"}}}, {"name": "unknown_26", "op": "Const", "attr": {"value": {"tensor": {"dtype": "DT_FLOAT", "tensorShape": {"dim": [{"size": "1"}, {"size": "1"}, {"size": "128"}, {"size": "64"}]}}}, "dtype": {"type": "DT_FLOAT"}}}, {"name": "unknown_27", "op": "Const", "attr": {"value": {"tensor": {"dtype": "DT_FLOAT", "tensorShape": {"dim": [{"size": "64"}]}}}, "dtype": {"type": "DT_FLOAT"}}}, {"name": "unknown_28", "op": "Const", "attr": {"value": {"tensor": {"dtype": "DT_INT32", "tensorShape": {"dim": [{"size": "4"}, {"size": "2"}]}}}, "dtype": {"type": "DT_INT32"}}}, {"name": "unknown_29", "op": "Const", "attr": {"value": {"tensor": {"dtype": "DT_FLOAT", "tensorShape": {"dim": [{"size": "3"}, {"size": "3"}, {"size": "64"}, {"size": "128"}]}}}, "dtype": {"type": "DT_FLOAT"}}}, {"name": "unknown_30", "op": "Const", "attr": {"value": {"tensor": {"dtype": "DT_FLOAT", "tensorShape": {"dim": [{"size": "128"}]}}}, "dtype": {"type": "DT_FLOAT"}}}, {"name": "unknown_31", "op": "Const", "attr": {"value": {"tensor": {"dtype": "DT_FLOAT", "tensorShape": {"dim": [{"size": "1"}, {"size": "1"}, {"size": "128"}, {"size": "128"}]}}}, "dtype": {"type": "DT_FLOAT"}}}, {"name": "unknown_32", "op": "Const", "attr": {"value": {"tensor": {"dtype": "DT_FLOAT", "tensorShape": {"dim": [{"size": "128"}]}}}, "dtype": {"type": "DT_FLOAT"}}}, {"name": "PartitionedCall/model_81/tf.strided_slice_70/StridedSlice/begin", "op": "Const", "attr": {"value": {"tensor": {"dtype": "DT_INT32", "tensorShape": {"dim": [{"size": "4"}]}}}, "dtype": {"type": "DT_INT32"}}}, {"name": "PartitionedCall/model_81/tf.strided_slice_70/StridedSlice/end", "op": "Const", "attr": {"value": {"tensor": {"dtype": "DT_INT32", "tensorShape": {"dim": [{"size": "4"}]}}}, "dtype": {"type": "DT_INT32"}}}, {"name": "PartitionedCall/model_81/tf.strided_slice_70/ones_like", "op": "Const", "attr": {"value": {"tensor": {"dtype": "DT_INT32", "tensorShape": {"dim": [{"size": "4"}]}}}, "dtype": {"type": "DT_INT32"}}}, {"name": "unknown_33", "op": "Const", "attr": {"value": {"tensor": {"dtype": "DT_FLOAT", "tensorShape": {"dim": [{"size": "3"}, {"size": "3"}, {"size": "64"}, {"size": "64"}]}}}, "dtype": {"type": "DT_FLOAT"}}}, {"name": "unknown_34", "op": "Const", "attr": {"value": {"tensor": {"dtype": "DT_FLOAT", "tensorShape": {"dim": [{"size": "64"}]}}}, "dtype": {"type": "DT_FLOAT"}}}, {"name": "unknown_35", "op": "Const", "attr": {"value": {"tensor": {"dtype": "DT_FLOAT", "tensorShape": {"dim": [{"size": "3"}, {"size": "3"}, {"size": "64"}, {"size": "64"}]}}}, "dtype": {"type": "DT_FLOAT"}}}, {"name": "unknown_36", "op": "Const", "attr": {"value": {"tensor": {"dtype": "DT_FLOAT", "tensorShape": {"dim": [{"size": "64"}]}}}, "dtype": {"type": "DT_FLOAT"}}}, {"name": "unknown_37", "op": "Const", "attr": {"value": {"tensor": {"dtype": "DT_FLOAT", "tensorShape": {"dim": [{"size": "3"}, {"size": "3"}, {"size": "64"}, {"size": "64"}]}}}, "dtype": {"type": "DT_FLOAT"}}}, {"name": "unknown_38", "op": "Const", "attr": {"value": {"tensor": {"dtype": "DT_FLOAT", "tensorShape": {"dim": [{"size": "64"}]}}}, "dtype": {"type": "DT_FLOAT"}}}, {"name": "unknown_39", "op": "Const", "attr": {"value": {"tensor": {"dtype": "DT_FLOAT", "tensorShape": {"dim": [{"size": "3"}, {"size": "3"}, {"size": "64"}, {"size": "64"}]}}}, "dtype": {"type": "DT_FLOAT"}}}, {"name": "unknown_40", "op": "Const", "attr": {"value": {"tensor": {"dtype": "DT_FLOAT", "tensorShape": {"dim": [{"size": "64"}]}}}, "dtype": {"type": "DT_FLOAT"}}}, {"name": "PartitionedCall/model_81/tf.concat_68/concat/axis", "op": "Const", "attr": {"value": {"tensor": {"dtype": "DT_INT32", "tensorShape": {}}}, "dtype": {"type": "DT_INT32"}}}, {"name": "unknown_41", "op": "Const", "attr": {"value": {"tensor": {"dtype": "DT_FLOAT", "tensorShape": {"dim": [{"size": "1"}, {"size": "1"}, {"size": "256"}, {"size": "128"}]}}}, "dtype": {"type": "DT_FLOAT"}}}, {"name": "unknown_42", "op": "Const", "attr": {"value": {"tensor": {"dtype": "DT_FLOAT", "tensorShape": {"dim": [{"size": "128"}]}}}, "dtype": {"type": "DT_FLOAT"}}}, {"name": "unknown_43", "op": "Const", "attr": {"value": {"tensor": {"dtype": "DT_INT32", "tensorShape": {"dim": [{"size": "4"}, {"size": "2"}]}}}, "dtype": {"type": "DT_INT32"}}}, {"name": "unknown_44", "op": "Const", "attr": {"value": {"tensor": {"dtype": "DT_FLOAT", "tensorShape": {"dim": [{"size": "3"}, {"size": "3"}, {"size": "128"}, {"size": "256"}]}}}, "dtype": {"type": "DT_FLOAT"}}}, {"name": "unknown_45", "op": "Const", "attr": {"value": {"tensor": {"dtype": "DT_FLOAT", "tensorShape": {"dim": [{"size": "256"}]}}}, "dtype": {"type": "DT_FLOAT"}}}, {"name": "unknown_46", "op": "Const", "attr": {"value": {"tensor": {"dtype": "DT_FLOAT", "tensorShape": {"dim": [{"size": "1"}, {"size": "1"}, {"size": "256"}, {"size": "256"}]}}}, "dtype": {"type": "DT_FLOAT"}}}, {"name": "unknown_47", "op": "Const", "attr": {"value": {"tensor": {"dtype": "DT_FLOAT", "tensorShape": {"dim": [{"size": "256"}]}}}, "dtype": {"type": "DT_FLOAT"}}}, {"name": "PartitionedCall/model_81/tf.strided_slice_72/StridedSlice/begin", "op": "Const", "attr": {"value": {"tensor": {"dtype": "DT_INT32", "tensorShape": {"dim": [{"size": "4"}]}}}, "dtype": {"type": "DT_INT32"}}}, {"name": "PartitionedCall/model_81/tf.strided_slice_72/StridedSlice/end", "op": "Const", "attr": {"value": {"tensor": {"dtype": "DT_INT32", "tensorShape": {"dim": [{"size": "4"}]}}}, "dtype": {"type": "DT_INT32"}}}, {"name": "PartitionedCall/model_81/tf.strided_slice_72/ones_like", "op": "Const", "attr": {"value": {"tensor": {"dtype": "DT_INT32", "tensorShape": {"dim": [{"size": "4"}]}}}, "dtype": {"type": "DT_INT32"}}}, {"name": "unknown_48", "op": "Const", "attr": {"value": {"tensor": {"dtype": "DT_FLOAT", "tensorShape": {"dim": [{"size": "3"}, {"size": "3"}, {"size": "128"}, {"size": "128"}]}}}, "dtype": {"type": "DT_FLOAT"}}}, {"name": "unknown_49", "op": "Const", "attr": {"value": {"tensor": {"dtype": "DT_FLOAT", "tensorShape": {"dim": [{"size": "128"}]}}}, "dtype": {"type": "DT_FLOAT"}}}, {"name": "unknown_50", "op": "Const", "attr": {"value": {"tensor": {"dtype": "DT_FLOAT", "tensorShape": {"dim": [{"size": "3"}, {"size": "3"}, {"size": "128"}, {"size": "128"}]}}}, "dtype": {"type": "DT_FLOAT"}}}, {"name": "unknown_51", "op": "Const", "attr": {"value": {"tensor": {"dtype": "DT_FLOAT", "tensorShape": {"dim": [{"size": "128"}]}}}, "dtype": {"type": "DT_FLOAT"}}}, {"name": "PartitionedCall/model_81/tf.concat_69/concat/axis", "op": "Const", "attr": {"value": {"tensor": {"dtype": "DT_INT32", "tensorShape": {}}}, "dtype": {"type": "DT_INT32"}}}, {"name": "unknown_52", "op": "Const", "attr": {"value": {"tensor": {"dtype": "DT_FLOAT", "tensorShape": {"dim": [{"size": "1"}, {"size": "1"}, {"size": "384"}, {"size": "256"}]}}}, "dtype": {"type": "DT_FLOAT"}}}, {"name": "unknown_53", "op": "Const", "attr": {"value": {"tensor": {"dtype": "DT_FLOAT", "tensorShape": {"dim": [{"size": "256"}]}}}, "dtype": {"type": "DT_FLOAT"}}}, {"name": "unknown_54", "op": "Const", "attr": {"value": {"tensor": {"dtype": "DT_FLOAT", "tensorShape": {"dim": [{"size": "1"}, {"size": "1"}, {"size": "256"}, {"size": "128"}]}}}, "dtype": {"type": "DT_FLOAT"}}}, {"name": "unknown_55", "op": "Const", "attr": {"value": {"tensor": {"dtype": "DT_FLOAT", "tensorShape": {"dim": [{"size": "128"}]}}}, "dtype": {"type": "DT_FLOAT"}}}, {"name": "PartitionedCall/model_81/tf.concat_70/concat/axis", "op": "Const", "attr": {"value": {"tensor": {"dtype": "DT_INT32", "tensorShape": {}}}, "dtype": {"type": "DT_INT32"}}}, {"name": "unknown_56", "op": "Const", "attr": {"value": {"tensor": {"dtype": "DT_FLOAT", "tensorShape": {"dim": [{"size": "1"}, {"size": "1"}, {"size": "512"}, {"size": "256"}]}}}, "dtype": {"type": "DT_FLOAT"}}}, {"name": "unknown_57", "op": "Const", "attr": {"value": {"tensor": {"dtype": "DT_FLOAT", "tensorShape": {"dim": [{"size": "256"}]}}}, "dtype": {"type": "DT_FLOAT"}}}, {"name": "PartitionedCall/model_81/tf.concat_78/concat/axis", "op": "Const", "attr": {"value": {"tensor": {"dtype": "DT_INT32", "tensorShape": {}}}, "dtype": {"type": "DT_INT32"}}}, {"name": "unknown_88", "op": "Const", "attr": {"value": {"tensor": {"dtype": "DT_FLOAT", "tensorShape": {"dim": [{"size": "1"}, {"size": "1"}, {"size": "384"}, {"size": "256"}]}}}, "dtype": {"type": "DT_FLOAT"}}}, {"name": "unknown_89", "op": "Const", "attr": {"value": {"tensor": {"dtype": "DT_FLOAT", "tensorShape": {"dim": [{"size": "256"}]}}}, "dtype": {"type": "DT_FLOAT"}}}, {"name": "PartitionedCall/model_81/tf.strided_slice_80/StridedSlice/begin", "op": "Const", "attr": {"value": {"tensor": {"dtype": "DT_INT32", "tensorShape": {"dim": [{"size": "4"}]}}}, "dtype": {"type": "DT_INT32"}}}, {"name": "PartitionedCall/model_81/tf.strided_slice_80/StridedSlice/end", "op": "Const", "attr": {"value": {"tensor": {"dtype": "DT_INT32", "tensorShape": {"dim": [{"size": "4"}]}}}, "dtype": {"type": "DT_INT32"}}}, {"name": "PartitionedCall/model_81/tf.strided_slice_80/ones_like", "op": "Const", "attr": {"value": {"tensor": {"dtype": "DT_INT32", "tensorShape": {"dim": [{"size": "4"}]}}}, "dtype": {"type": "DT_INT32"}}}, {"name": "unknown_90", "op": "Const", "attr": {"value": {"tensor": {"dtype": "DT_FLOAT", "tensorShape": {"dim": [{"size": "3"}, {"size": "3"}, {"size": "128"}, {"size": "128"}]}}}, "dtype": {"type": "DT_FLOAT"}}}, {"name": "unknown_91", "op": "Const", "attr": {"value": {"tensor": {"dtype": "DT_FLOAT", "tensorShape": {"dim": [{"size": "128"}]}}}, "dtype": {"type": "DT_FLOAT"}}}, {"name": "unknown_92", "op": "Const", "attr": {"value": {"tensor": {"dtype": "DT_FLOAT", "tensorShape": {"dim": [{"size": "3"}, {"size": "3"}, {"size": "128"}, {"size": "128"}]}}}, "dtype": {"type": "DT_FLOAT"}}}, {"name": "unknown_93", "op": "Const", "attr": {"value": {"tensor": {"dtype": "DT_FLOAT", "tensorShape": {"dim": [{"size": "128"}]}}}, "dtype": {"type": "DT_FLOAT"}}}, {"name": "PartitionedCall/model_81/tf.concat_80/concat/axis", "op": "Const", "attr": {"value": {"tensor": {"dtype": "DT_INT32", "tensorShape": {}}}, "dtype": {"type": "DT_INT32"}}}, {"name": "unknown_94", "op": "Const", "attr": {"value": {"tensor": {"dtype": "DT_FLOAT", "tensorShape": {"dim": [{"size": "1"}, {"size": "1"}, {"size": "384"}, {"size": "256"}]}}}, "dtype": {"type": "DT_FLOAT"}}}, {"name": "unknown_95", "op": "Const", "attr": {"value": {"tensor": {"dtype": "DT_FLOAT", "tensorShape": {"dim": [{"size": "256"}]}}}, "dtype": {"type": "DT_FLOAT"}}}, {"name": "unknown_96", "op": "Const", "attr": {"value": {"tensor": {"dtype": "DT_FLOAT", "tensorShape": {"dim": [{"size": "3"}, {"size": "3"}, {"size": "256"}, {"size": "80"}]}}}, "dtype": {"type": "DT_FLOAT"}}}, {"name": "unknown_102", "op": "Const", "attr": {"value": {"tensor": {"dtype": "DT_FLOAT", "tensorShape": {"dim": [{"size": "80"}]}}}, "dtype": {"type": "DT_FLOAT"}}}, {"name": "unknown_108", "op": "Const", "attr": {"value": {"tensor": {"dtype": "DT_FLOAT", "tensorShape": {"dim": [{"size": "3"}, {"size": "3"}, {"size": "80"}, {"size": "80"}]}}}, "dtype": {"type": "DT_FLOAT"}}}, {"name": "unknown_114", "op": "Const", "attr": {"value": {"tensor": {"dtype": "DT_FLOAT", "tensorShape": {"dim": [{"size": "80"}]}}}, "dtype": {"type": "DT_FLOAT"}}}, {"name": "unknown_120", "op": "Const", "attr": {"value": {"tensor": {"dtype": "DT_FLOAT", "tensorShape": {"dim": [{"size": "1"}, {"size": "1"}, {"size": "80"}, {"size": "80"}]}}}, "dtype": {"type": "DT_FLOAT"}}}, {"name": "unknown_127", "op": "Const", "attr": {"value": {"tensor": {"dtype": "DT_FLOAT", "tensorShape": {"dim": [{"size": "80"}]}}}, "dtype": {"type": "DT_FLOAT"}}}, {"name": "PartitionedCall/model_81/tf.concat_81/concat/axis", "op": "Const", "attr": {"value": {"tensor": {"dtype": "DT_INT32", "tensorShape": {}}}, "dtype": {"type": "DT_INT32"}}}, {"name": "PartitionedCall/model_81/tf.compat.v1.transpose_409/transpose/perm", "op": "Const", "attr": {"value": {"tensor": {"dtype": "DT_INT32", "tensorShape": {"dim": [{"size": "4"}]}}}, "dtype": {"type": "DT_INT32"}}}, {"name": "PartitionedCall/model_81/tf.reshape_62/Reshape/shape", "op": "Const", "attr": {"value": {"tensor": {"dtype": "DT_INT32", "tensorShape": {"dim": [{"size": "3"}]}}}, "dtype": {"type": "DT_INT32"}}}, {"name": "PartitionedCall/model_81/tf.concat_82/concat/axis", "op": "Const", "attr": {"value": {"tensor": {"dtype": "DT_INT32", "tensorShape": {}}}, "dtype": {"type": "DT_INT32"}}}, {"name": "PartitionedCall/model_81/tf.strided_slice_82/StridedSlice/begin", "op": "Const", "attr": {"value": {"tensor": {"dtype": "DT_INT32", "tensorShape": {"dim": [{"size": "3"}]}}}, "dtype": {"type": "DT_INT32"}}}, {"name": "PartitionedCall/model_81/tf.strided_slice_82/StridedSlice/end", "op": "Const", "attr": {"value": {"tensor": {"dtype": "DT_INT32", "tensorShape": {"dim": [{"size": "3"}]}}}, "dtype": {"type": "DT_INT32"}}}, {"name": "PartitionedCall/model_81/tf.strided_slice_82/ones_like", "op": "Const", "attr": {"value": {"tensor": {"dtype": "DT_INT32", "tensorShape": {"dim": [{"size": "3"}]}}}, "dtype": {"type": "DT_INT32"}}}, {"name": "PartitionedCall/model_81/output0/concat/axis", "op": "Const", "attr": {"value": {"tensor": {"dtype": "DT_INT32", "tensorShape": {}}}, "dtype": {"type": "DT_INT32"}}}, {"name": "images", "op": "Placeholder", "attr": {"shape": {"shape": {"dim": [{"size": "1"}, {"size": "320"}, {"size": "320"}, {"size": "3"}]}}, "dtype": {"type": "DT_FLOAT"}}}, {"name": "PartitionedCall/model_81/tf.compat.v1.pad_21/Pad", "op": "Pad", "input": ["images", "unknown"], "attr": {"Tpaddings": {"type": "DT_INT32"}, "T": {"type": "DT_FLOAT"}}}, {"name": "PartitionedCall/model_81/tf.math.add_281/Add", "op": "_FusedConv2D", "input": ["PartitionedCall/model_81/tf.compat.v1.pad_21/Pad", "unknown_0", "unknown_1"], "device": "/device:CPU:0", "attr": {"num_host_args": {"i": "0"}, "data_format": {"s": "TkhXQw=="}, "filter_format": {"s": "SFdJTw=="}, "strides": {"list": {"i": ["1", "2", "2", "1"]}}, "num_args": {"i": "1"}, "fused_ops": {"list": {"s": ["Qmlhc0FkZA=="]}}, "TArgs": {"list": {"type": ["DT_FLOAT"]}}, "padding": {"s": "VkFMSUQ="}, "use_cudnn_on_gpu": {"b": true}, "leakyrelu_alpha": {"f": 0.2}, "epsilon": {"f": 0.0}, "T": {"type": "DT_FLOAT"}, "explicit_paddings": {"list": {}}, "dilations": {"list": {"i": ["1", "1", "1", "1"]}}}}, {"name": "PartitionedCall/model_81/tf.math.sigmoid_194/Sigmoid", "op": "Sigmoid", "input": ["PartitionedCall/model_81/tf.math.add_281/Add"], "attr": {"T": {"type": "DT_FLOAT"}}}, {"name": "PartitionedCall/model_81/tf.math.multiply_863/Mul", "op": "Mul", "input": ["PartitionedCall/model_81/tf.math.add_281/Add", "PartitionedCall/model_81/tf.math.sigmoid_194/Sigmoid"], "attr": {"T": {"type": "DT_FLOAT"}}}, {"name": "PartitionedCall/model_81/tf.compat.v1.pad_22/Pad", "op": "Pad", "input": ["PartitionedCall/model_81/tf.math.multiply_863/Mul", "unknown_2"], "attr": {"Tpaddings": {"type": "DT_INT32"}, "T": {"type": "DT_FLOAT"}}}, {"name": "PartitionedCall/model_81/tf.math.add_282/Add", "op": "_FusedConv2D", "input": ["PartitionedCall/model_81/tf.compat.v1.pad_22/Pad", "unknown_3", "unknown_4"], "device": "/device:CPU:0", "attr": {"num_host_args": {"i": "0"}, "data_format": {"s": "TkhXQw=="}, "filter_format": {"s": "SFdJTw=="}, "strides": {"list": {"i": ["1", "2", "2", "1"]}}, "num_args": {"i": "1"}, "fused_ops": {"list": {"s": ["Qmlhc0FkZA=="]}}, "TArgs": {"list": {"type": ["DT_FLOAT"]}}, "padding": {"s": "VkFMSUQ="}, "use_cudnn_on_gpu": {"b": true}, "leakyrelu_alpha": {"f": 0.2}, "epsilon": {"f": 0.0}, "T": {"type": "DT_FLOAT"}, "explicit_paddings": {"list": {}}, "dilations": {"list": {"i": ["1", "1", "1", "1"]}}}}, {"name": "PartitionedCall/model_81/tf.math.sigmoid_195/Sigmoid", "op": "Sigmoid", "input": ["PartitionedCall/model_81/tf.math.add_282/Add"], "attr": {"T": {"type": "DT_FLOAT"}}}, {"name": "PartitionedCall/model_81/tf.math.multiply_867/Mul", "op": "Mul", "input": ["PartitionedCall/model_81/tf.math.add_282/Add", "PartitionedCall/model_81/tf.math.sigmoid_195/Sigmoid"], "attr": {"T": {"type": "DT_FLOAT"}}}, {"name": "PartitionedCall/model_81/tf.math.add_283/Add", "op": "_FusedConv2D", "input": ["PartitionedCall/model_81/tf.math.multiply_867/Mul", "unknown_5", "unknown_6"], "device": "/device:CPU:0", "attr": {"num_host_args": {"i": "0"}, "data_format": {"s": "TkhXQw=="}, "filter_format": {"s": "SFdJTw=="}, "fused_ops": {"list": {"s": ["Qmlhc0FkZA=="]}}, "num_args": {"i": "1"}, "strides": {"list": {"i": ["1", "1", "1", "1"]}}, "TArgs": {"list": {"type": ["DT_FLOAT"]}}, "padding": {"s": "U0FNRQ=="}, "use_cudnn_on_gpu": {"b": true}, "leakyrelu_alpha": {"f": 0.2}, "epsilon": {"f": 0.0}, "T": {"type": "DT_FLOAT"}, "explicit_paddings": {"list": {}}, "dilations": {"list": {"i": ["1", "1", "1", "1"]}}}}, {"name": "PartitionedCall/model_81/tf.math.sigmoid_196/Sigmoid", "op": "Sigmoid", "input": ["PartitionedCall/model_81/tf.math.add_283/Add"], "attr": {"T": {"type": "DT_FLOAT"}}}, {"name": "PartitionedCall/model_81/tf.math.multiply_871/Mul", "op": "Mul", "input": ["PartitionedCall/model_81/tf.math.add_283/Add", "PartitionedCall/model_81/tf.math.sigmoid_196/Sigmoid"], "attr": {"T": {"type": "DT_FLOAT"}}}, {"name": "PartitionedCall/model_81/tf.strided_slice_65/StridedSlice", "op": "StridedSlice", "input": ["PartitionedCall/model_81/tf.math.multiply_871/Mul", "PartitionedCall/model_81/tf.strided_slice_65/StridedSlice/begin", "PartitionedCall/model_81/tf.strided_slice_65/StridedSlice/end", "PartitionedCall/model_81/tf.strided_slice_65/ones_like"], "attr": {"shrink_axis_mask": {"i": "0"}, "Index": {"type": "DT_INT32"}, "new_axis_mask": {"i": "0"}, "begin_mask": {"i": "7"}, "T": {"type": "DT_FLOAT"}, "end_mask": {"i": "7"}, "ellipsis_mask": {"i": "0"}}}, {"name": "PartitionedCall/model_81/tf.strided_slice_66/StridedSlice", "op": "StridedSlice", "input": ["PartitionedCall/model_81/tf.math.multiply_871/Mul", "PartitionedCall/model_81/tf.strided_slice_66/StridedSlice/begin", "PartitionedCall/model_81/tf.strided_slice_66/StridedSlice/end", "PartitionedCall/model_81/tf.strided_slice_66/ones_like"], "attr": {"shrink_axis_mask": {"i": "0"}, "Index": {"type": "DT_INT32"}, "new_axis_mask": {"i": "0"}, "begin_mask": {"i": "7"}, "end_mask": {"i": "7"}, "T": {"type": "DT_FLOAT"}, "ellipsis_mask": {"i": "0"}}}, {"name": "PartitionedCall/model_81/tf.math.add_284/Add", "op": "_FusedConv2D", "input": ["PartitionedCall/model_81/tf.strided_slice_66/StridedSlice", "unknown_7", "unknown_8"], "device": "/device:CPU:0", "attr": {"num_host_args": {"i": "0"}, "data_format": {"s": "TkhXQw=="}, "filter_format": {"s": "SFdJTw=="}, "strides": {"list": {"i": ["1", "1", "1", "1"]}}, "num_args": {"i": "1"}, "fused_ops": {"list": {"s": ["Qmlhc0FkZA=="]}}, "TArgs": {"list": {"type": ["DT_FLOAT"]}}, "padding": {"s": "U0FNRQ=="}, "use_cudnn_on_gpu": {"b": true}, "leakyrelu_alpha": {"f": 0.2}, "epsilon": {"f": 0.0}, "T": {"type": "DT_FLOAT"}, "explicit_paddings": {"list": {}}, "dilations": {"list": {"i": ["1", "1", "1", "1"]}}}}, {"name": "PartitionedCall/model_81/tf.math.sigmoid_197/Sigmoid", "op": "Sigmoid", "input": ["PartitionedCall/model_81/tf.math.add_284/Add"], "attr": {"T": {"type": "DT_FLOAT"}}}, {"name": "PartitionedCall/model_81/tf.math.multiply_875/Mul", "op": "Mul", "input": ["PartitionedCall/model_81/tf.math.add_284/Add", "PartitionedCall/model_81/tf.math.sigmoid_197/Sigmoid"], "attr": {"T": {"type": "DT_FLOAT"}}}, {"name": "PartitionedCall/model_81/tf.math.add_285/Add", "op": "_FusedConv2D", "input": ["PartitionedCall/model_81/tf.math.multiply_875/Mul", "unknown_9", "unknown_10"], "device": "/device:CPU:0", "attr": {"num_host_args": {"i": "0"}, "data_format": {"s": "TkhXQw=="}, "filter_format": {"s": "SFdJTw=="}, "fused_ops": {"list": {"s": ["Qmlhc0FkZA=="]}}, "num_args": {"i": "1"}, "strides": {"list": {"i": ["1", "1", "1", "1"]}}, "TArgs": {"list": {"type": ["DT_FLOAT"]}}, "padding": {"s": "U0FNRQ=="}, "use_cudnn_on_gpu": {"b": true}, "leakyrelu_alpha": {"f": 0.2}, "epsilon": {"f": 0.0}, "T": {"type": "DT_FLOAT"}, "explicit_paddings": {"list": {}}, "dilations": {"list": {"i": ["1", "1", "1", "1"]}}}}, {"name": "PartitionedCall/model_81/tf.math.sigmoid_198/Sigmoid", "op": "Sigmoid", "input": ["PartitionedCall/model_81/tf.math.add_285/Add"], "attr": {"T": {"type": "DT_FLOAT"}}}, {"name": "PartitionedCall/model_81/tf.math.multiply_879/Mul", "op": "Mul", "input": ["PartitionedCall/model_81/tf.math.add_285/Add", "PartitionedCall/model_81/tf.math.sigmoid_198/Sigmoid"], "attr": {"T": {"type": "DT_FLOAT"}}}, {"name": "PartitionedCall/model_81/tf.math.add_287/Add", "op": "AddV2", "input": ["PartitionedCall/model_81/tf.strided_slice_66/StridedSlice", "PartitionedCall/model_81/tf.math.multiply_879/Mul"], "attr": {"T": {"type": "DT_FLOAT"}}}, {"name": "PartitionedCall/model_81/tf.concat_66/concat", "op": "ConcatV2", "input": ["PartitionedCall/model_81/tf.strided_slice_65/StridedSlice", "PartitionedCall/model_81/tf.strided_slice_66/StridedSlice", "PartitionedCall/model_81/tf.math.add_287/Add", "PartitionedCall/model_81/tf.concat_66/concat/axis"], "attr": {"N": {"i": "3"}, "T": {"type": "DT_FLOAT"}, "Tidx": {"type": "DT_INT32"}}}, {"name": "PartitionedCall/model_81/tf.math.add_288/Add", "op": "_FusedConv2D", "input": ["PartitionedCall/model_81/tf.concat_66/concat", "unknown_11", "unknown_12"], "device": "/device:CPU:0", "attr": {"num_host_args": {"i": "0"}, "data_format": {"s": "TkhXQw=="}, "filter_format": {"s": "SFdJTw=="}, "strides": {"list": {"i": ["1", "1", "1", "1"]}}, "num_args": {"i": "1"}, "fused_ops": {"list": {"s": ["Qmlhc0FkZA=="]}}, "TArgs": {"list": {"type": ["DT_FLOAT"]}}, "padding": {"s": "U0FNRQ=="}, "use_cudnn_on_gpu": {"b": true}, "leakyrelu_alpha": {"f": 0.2}, "epsilon": {"f": 0.0}, "T": {"type": "DT_FLOAT"}, "explicit_paddings": {"list": {}}, "dilations": {"list": {"i": ["1", "1", "1", "1"]}}}}, {"name": "PartitionedCall/model_81/tf.math.sigmoid_199/Sigmoid", "op": "Sigmoid", "input": ["PartitionedCall/model_81/tf.math.add_288/Add"], "attr": {"T": {"type": "DT_FLOAT"}}}, {"name": "PartitionedCall/model_81/tf.math.multiply_885/Mul", "op": "Mul", "input": ["PartitionedCall/model_81/tf.math.add_288/Add", "PartitionedCall/model_81/tf.math.sigmoid_199/Sigmoid"], "attr": {"T": {"type": "DT_FLOAT"}}}, {"name": "PartitionedCall/model_81/tf.compat.v1.pad_23/Pad", "op": "Pad", "input": ["PartitionedCall/model_81/tf.math.multiply_885/Mul", "unknown_13"], "attr": {"Tpaddings": {"type": "DT_INT32"}, "T": {"type": "DT_FLOAT"}}}, {"name": "PartitionedCall/model_81/tf.math.add_289/Add", "op": "_FusedConv2D", "input": ["PartitionedCall/model_81/tf.compat.v1.pad_23/Pad", "unknown_14", "unknown_15"], "device": "/device:CPU:0", "attr": {"num_host_args": {"i": "0"}, "data_format": {"s": "TkhXQw=="}, "filter_format": {"s": "SFdJTw=="}, "fused_ops": {"list": {"s": ["Qmlhc0FkZA=="]}}, "num_args": {"i": "1"}, "strides": {"list": {"i": ["1", "2", "2", "1"]}}, "TArgs": {"list": {"type": ["DT_FLOAT"]}}, "padding": {"s": "VkFMSUQ="}, "use_cudnn_on_gpu": {"b": true}, "leakyrelu_alpha": {"f": 0.2}, "epsilon": {"f": 0.0}, "T": {"type": "DT_FLOAT"}, "explicit_paddings": {"list": {}}, "dilations": {"list": {"i": ["1", "1", "1", "1"]}}}}, {"name": "PartitionedCall/model_81/tf.math.sigmoid_200/Sigmoid", "op": "Sigmoid", "input": ["PartitionedCall/model_81/tf.math.add_289/Add"], "attr": {"T": {"type": "DT_FLOAT"}}}, {"name": "PartitionedCall/model_81/tf.math.multiply_889/Mul", "op": "Mul", "input": ["PartitionedCall/model_81/tf.math.add_289/Add", "PartitionedCall/model_81/tf.math.sigmoid_200/Sigmoid"], "attr": {"T": {"type": "DT_FLOAT"}}}, {"name": "PartitionedCall/model_81/tf.math.add_290/Add", "op": "_FusedConv2D", "input": ["PartitionedCall/model_81/tf.math.multiply_889/Mul", "unknown_16", "unknown_17"], "device": "/device:CPU:0", "attr": {"num_host_args": {"i": "0"}, "data_format": {"s": "TkhXQw=="}, "filter_format": {"s": "SFdJTw=="}, "strides": {"list": {"i": ["1", "1", "1", "1"]}}, "num_args": {"i": "1"}, "fused_ops": {"list": {"s": ["Qmlhc0FkZA=="]}}, "TArgs": {"list": {"type": ["DT_FLOAT"]}}, "padding": {"s": "U0FNRQ=="}, "use_cudnn_on_gpu": {"b": true}, "leakyrelu_alpha": {"f": 0.2}, "epsilon": {"f": 0.0}, "T": {"type": "DT_FLOAT"}, "explicit_paddings": {"list": {}}, "dilations": {"list": {"i": ["1", "1", "1", "1"]}}}}, {"name": "PartitionedCall/model_81/tf.math.sigmoid_201/Sigmoid", "op": "Sigmoid", "input": ["PartitionedCall/model_81/tf.math.add_290/Add"], "attr": {"T": {"type": "DT_FLOAT"}}}, {"name": "PartitionedCall/model_81/tf.math.multiply_893/Mul", "op": "Mul", "input": ["PartitionedCall/model_81/tf.math.add_290/Add", "PartitionedCall/model_81/tf.math.sigmoid_201/Sigmoid"], "attr": {"T": {"type": "DT_FLOAT"}}}, {"name": "PartitionedCall/model_81/tf.strided_slice_67/StridedSlice", "op": "StridedSlice", "input": ["PartitionedCall/model_81/tf.math.multiply_893/Mul", "PartitionedCall/model_81/tf.strided_slice_67/StridedSlice/begin", "PartitionedCall/model_81/tf.strided_slice_67/StridedSlice/end", "PartitionedCall/model_81/tf.strided_slice_67/ones_like"], "attr": {"shrink_axis_mask": {"i": "0"}, "Index": {"type": "DT_INT32"}, "new_axis_mask": {"i": "0"}, "begin_mask": {"i": "7"}, "end_mask": {"i": "7"}, "T": {"type": "DT_FLOAT"}, "ellipsis_mask": {"i": "0"}}}, {"name": "PartitionedCall/model_81/tf.strided_slice_68/StridedSlice", "op": "StridedSlice", "input": ["PartitionedCall/model_81/tf.math.multiply_893/Mul", "PartitionedCall/model_81/tf.strided_slice_68/StridedSlice/begin", "PartitionedCall/model_81/tf.strided_slice_68/StridedSlice/end", "PartitionedCall/model_81/tf.strided_slice_68/ones_like"], "attr": {"shrink_axis_mask": {"i": "0"}, "new_axis_mask": {"i": "0"}, "Index": {"type": "DT_INT32"}, "begin_mask": {"i": "7"}, "end_mask": {"i": "7"}, "T": {"type": "DT_FLOAT"}, "ellipsis_mask": {"i": "0"}}}, {"name": "PartitionedCall/model_81/tf.math.add_291/Add", "op": "_FusedConv2D", "input": ["PartitionedCall/model_81/tf.strided_slice_68/StridedSlice", "unknown_18", "unknown_19"], "device": "/device:CPU:0", "attr": {"num_host_args": {"i": "0"}, "data_format": {"s": "TkhXQw=="}, "filter_format": {"s": "SFdJTw=="}, "strides": {"list": {"i": ["1", "1", "1", "1"]}}, "num_args": {"i": "1"}, "fused_ops": {"list": {"s": ["Qmlhc0FkZA=="]}}, "TArgs": {"list": {"type": ["DT_FLOAT"]}}, "padding": {"s": "U0FNRQ=="}, "use_cudnn_on_gpu": {"b": true}, "leakyrelu_alpha": {"f": 0.2}, "epsilon": {"f": 0.0}, "T": {"type": "DT_FLOAT"}, "explicit_paddings": {"list": {}}, "dilations": {"list": {"i": ["1", "1", "1", "1"]}}}}, {"name": "PartitionedCall/model_81/tf.math.sigmoid_202/Sigmoid", "op": "Sigmoid", "input": ["PartitionedCall/model_81/tf.math.add_291/Add"], "attr": {"T": {"type": "DT_FLOAT"}}}, {"name": "PartitionedCall/model_81/tf.math.multiply_897/Mul", "op": "Mul", "input": ["PartitionedCall/model_81/tf.math.add_291/Add", "PartitionedCall/model_81/tf.math.sigmoid_202/Sigmoid"], "attr": {"T": {"type": "DT_FLOAT"}}}, {"name": "PartitionedCall/model_81/tf.math.add_292/Add", "op": "_FusedConv2D", "input": ["PartitionedCall/model_81/tf.math.multiply_897/Mul", "unknown_20", "unknown_21"], "device": "/device:CPU:0", "attr": {"num_host_args": {"i": "0"}, "data_format": {"s": "TkhXQw=="}, "filter_format": {"s": "SFdJTw=="}, "fused_ops": {"list": {"s": ["Qmlhc0FkZA=="]}}, "num_args": {"i": "1"}, "strides": {"list": {"i": ["1", "1", "1", "1"]}}, "TArgs": {"list": {"type": ["DT_FLOAT"]}}, "padding": {"s": "U0FNRQ=="}, "use_cudnn_on_gpu": {"b": true}, "leakyrelu_alpha": {"f": 0.2}, "epsilon": {"f": 0.0}, "T": {"type": "DT_FLOAT"}, "explicit_paddings": {"list": {}}, "dilations": {"list": {"i": ["1", "1", "1", "1"]}}}}, {"name": "PartitionedCall/model_81/tf.math.sigmoid_203/Sigmoid", "op": "Sigmoid", "input": ["PartitionedCall/model_81/tf.math.add_292/Add"], "attr": {"T": {"type": "DT_FLOAT"}}}, {"name": "PartitionedCall/model_81/tf.math.multiply_901/Mul", "op": "Mul", "input": ["PartitionedCall/model_81/tf.math.add_292/Add", "PartitionedCall/model_81/tf.math.sigmoid_203/Sigmoid"], "attr": {"T": {"type": "DT_FLOAT"}}}, {"name": "PartitionedCall/model_81/tf.math.add_294/Add", "op": "AddV2", "input": ["PartitionedCall/model_81/tf.strided_slice_68/StridedSlice", "PartitionedCall/model_81/tf.math.multiply_901/Mul"], "attr": {"T": {"type": "DT_FLOAT"}}}, {"name": "PartitionedCall/model_81/tf.math.add_295/Add", "op": "_FusedConv2D", "input": ["PartitionedCall/model_81/tf.math.add_294/Add", "unknown_22", "unknown_23"], "device": "/device:CPU:0", "attr": {"num_host_args": {"i": "0"}, "data_format": {"s": "TkhXQw=="}, "filter_format": {"s": "SFdJTw=="}, "strides": {"list": {"i": ["1", "1", "1", "1"]}}, "num_args": {"i": "1"}, "fused_ops": {"list": {"s": ["Qmlhc0FkZA=="]}}, "TArgs": {"list": {"type": ["DT_FLOAT"]}}, "padding": {"s": "U0FNRQ=="}, "use_cudnn_on_gpu": {"b": true}, "leakyrelu_alpha": {"f": 0.2}, "epsilon": {"f": 0.0}, "T": {"type": "DT_FLOAT"}, "explicit_paddings": {"list": {}}, "dilations": {"list": {"i": ["1", "1", "1", "1"]}}}}, {"name": "PartitionedCall/model_81/tf.math.sigmoid_204/Sigmoid", "op": "Sigmoid", "input": ["PartitionedCall/model_81/tf.math.add_295/Add"], "attr": {"T": {"type": "DT_FLOAT"}}}, {"name": "PartitionedCall/model_81/tf.math.multiply_907/Mul", "op": "Mul", "input": ["PartitionedCall/model_81/tf.math.add_295/Add", "PartitionedCall/model_81/tf.math.sigmoid_204/Sigmoid"], "attr": {"T": {"type": "DT_FLOAT"}}}, {"name": "PartitionedCall/model_81/tf.math.add_296/Add", "op": "_FusedConv2D", "input": ["PartitionedCall/model_81/tf.math.multiply_907/Mul", "unknown_24", "unknown_25"], "device": "/device:CPU:0", "attr": {"num_host_args": {"i": "0"}, "data_format": {"s": "TkhXQw=="}, "filter_format": {"s": "SFdJTw=="}, "fused_ops": {"list": {"s": ["Qmlhc0FkZA=="]}}, "num_args": {"i": "1"}, "strides": {"list": {"i": ["1", "1", "1", "1"]}}, "TArgs": {"list": {"type": ["DT_FLOAT"]}}, "padding": {"s": "U0FNRQ=="}, "use_cudnn_on_gpu": {"b": true}, "leakyrelu_alpha": {"f": 0.2}, "epsilon": {"f": 0.0}, "T": {"type": "DT_FLOAT"}, "explicit_paddings": {"list": {}}, "dilations": {"list": {"i": ["1", "1", "1", "1"]}}}}, {"name": "PartitionedCall/model_81/tf.math.sigmoid_205/Sigmoid", "op": "Sigmoid", "input": ["PartitionedCall/model_81/tf.math.add_296/Add"], "attr": {"T": {"type": "DT_FLOAT"}}}, {"name": "PartitionedCall/model_81/tf.math.multiply_911/Mul", "op": "Mul", "input": ["PartitionedCall/model_81/tf.math.add_296/Add", "PartitionedCall/model_81/tf.math.sigmoid_205/Sigmoid"], "attr": {"T": {"type": "DT_FLOAT"}}}, {"name": "PartitionedCall/model_81/tf.math.add_298/Add", "op": "AddV2", "input": ["PartitionedCall/model_81/tf.math.add_294/Add", "PartitionedCall/model_81/tf.math.multiply_911/Mul"], "attr": {"T": {"type": "DT_FLOAT"}}}, {"name": "PartitionedCall/model_81/tf.concat_67/concat", "op": "ConcatV2", "input": ["PartitionedCall/model_81/tf.strided_slice_67/StridedSlice", "PartitionedCall/model_81/tf.strided_slice_68/StridedSlice", "PartitionedCall/model_81/tf.math.add_294/Add", "PartitionedCall/model_81/tf.math.add_298/Add", "PartitionedCall/model_81/tf.concat_67/concat/axis"], "attr": {"N": {"i": "4"}, "T": {"type": "DT_FLOAT"}, "Tidx": {"type": "DT_INT32"}}}, {"name": "PartitionedCall/model_81/tf.math.add_299/Add", "op": "_FusedConv2D", "input": ["PartitionedCall/model_81/tf.concat_67/concat", "unknown_26", "unknown_27"], "device": "/device:CPU:0", "attr": {"num_host_args": {"i": "0"}, "data_format": {"s": "TkhXQw=="}, "filter_format": {"s": "SFdJTw=="}, "strides": {"list": {"i": ["1", "1", "1", "1"]}}, "num_args": {"i": "1"}, "fused_ops": {"list": {"s": ["Qmlhc0FkZA=="]}}, "TArgs": {"list": {"type": ["DT_FLOAT"]}}, "padding": {"s": "U0FNRQ=="}, "use_cudnn_on_gpu": {"b": true}, "leakyrelu_alpha": {"f": 0.2}, "epsilon": {"f": 0.0}, "T": {"type": "DT_FLOAT"}, "explicit_paddings": {"list": {}}, "dilations": {"list": {"i": ["1", "1", "1", "1"]}}}}, {"name": "PartitionedCall/model_81/tf.math.sigmoid_206/Sigmoid", "op": "Sigmoid", "input": ["PartitionedCall/model_81/tf.math.add_299/Add"], "attr": {"T": {"type": "DT_FLOAT"}}}, {"name": "PartitionedCall/model_81/tf.math.multiply_917/Mul", "op": "Mul", "input": ["PartitionedCall/model_81/tf.math.add_299/Add", "PartitionedCall/model_81/tf.math.sigmoid_206/Sigmoid"], "attr": {"T": {"type": "DT_FLOAT"}}}, {"name": "PartitionedCall/model_81/tf.compat.v1.pad_24/Pad", "op": "Pad", "input": ["PartitionedCall/model_81/tf.math.multiply_917/Mul", "unknown_28"], "attr": {"Tpaddings": {"type": "DT_INT32"}, "T": {"type": "DT_FLOAT"}}}, {"name": "PartitionedCall/model_81/tf.math.add_300/Add", "op": "_FusedConv2D", "input": ["PartitionedCall/model_81/tf.compat.v1.pad_24/Pad", "unknown_29", "unknown_30"], "device": "/device:CPU:0", "attr": {"num_host_args": {"i": "0"}, "data_format": {"s": "TkhXQw=="}, "filter_format": {"s": "SFdJTw=="}, "strides": {"list": {"i": ["1", "2", "2", "1"]}}, "num_args": {"i": "1"}, "fused_ops": {"list": {"s": ["Qmlhc0FkZA=="]}}, "TArgs": {"list": {"type": ["DT_FLOAT"]}}, "padding": {"s": "VkFMSUQ="}, "use_cudnn_on_gpu": {"b": true}, "leakyrelu_alpha": {"f": 0.2}, "epsilon": {"f": 0.0}, "T": {"type": "DT_FLOAT"}, "explicit_paddings": {"list": {}}, "dilations": {"list": {"i": ["1", "1", "1", "1"]}}}}, {"name": "PartitionedCall/model_81/tf.math.sigmoid_207/Sigmoid", "op": "Sigmoid", "input": ["PartitionedCall/model_81/tf.math.add_300/Add"], "attr": {"T": {"type": "DT_FLOAT"}}}, {"name": "PartitionedCall/model_81/tf.math.multiply_921/Mul", "op": "Mul", "input": ["PartitionedCall/model_81/tf.math.add_300/Add", "PartitionedCall/model_81/tf.math.sigmoid_207/Sigmoid"], "attr": {"T": {"type": "DT_FLOAT"}}}, {"name": "PartitionedCall/model_81/tf.math.add_301/Add", "op": "_FusedConv2D", "input": ["PartitionedCall/model_81/tf.math.multiply_921/Mul", "unknown_31", "unknown_32"], "device": "/device:CPU:0", "attr": {"num_host_args": {"i": "0"}, "data_format": {"s": "TkhXQw=="}, "filter_format": {"s": "SFdJTw=="}, "strides": {"list": {"i": ["1", "1", "1", "1"]}}, "num_args": {"i": "1"}, "fused_ops": {"list": {"s": ["Qmlhc0FkZA=="]}}, "TArgs": {"list": {"type": ["DT_FLOAT"]}}, "padding": {"s": "U0FNRQ=="}, "use_cudnn_on_gpu": {"b": true}, "leakyrelu_alpha": {"f": 0.2}, "epsilon": {"f": 0.0}, "T": {"type": "DT_FLOAT"}, "explicit_paddings": {"list": {}}, "dilations": {"list": {"i": ["1", "1", "1", "1"]}}}}, {"name": "PartitionedCall/model_81/tf.math.sigmoid_208/Sigmoid", "op": "Sigmoid", "input": ["PartitionedCall/model_81/tf.math.add_301/Add"], "attr": {"T": {"type": "DT_FLOAT"}}}, {"name": "PartitionedCall/model_81/tf.math.multiply_925/Mul", "op": "Mul", "input": ["PartitionedCall/model_81/tf.math.add_301/Add", "PartitionedCall/model_81/tf.math.sigmoid_208/Sigmoid"], "attr": {"T": {"type": "DT_FLOAT"}}}, {"name": "PartitionedCall/model_81/tf.strided_slice_69/StridedSlice", "op": "StridedSlice", "input": ["PartitionedCall/model_81/tf.math.multiply_925/Mul", "PartitionedCall/model_81/tf.strided_slice_69/StridedSlice/begin", "PartitionedCall/model_81/tf.strided_slice_69/StridedSlice/end", "PartitionedCall/model_81/tf.strided_slice_69/ones_like"], "attr": {"shrink_axis_mask": {"i": "0"}, "new_axis_mask": {"i": "0"}, "Index": {"type": "DT_INT32"}, "begin_mask": {"i": "7"}, "end_mask": {"i": "7"}, "T": {"type": "DT_FLOAT"}, "ellipsis_mask": {"i": "0"}}}, {"name": "PartitionedCall/model_81/tf.strided_slice_70/StridedSlice", "op": "StridedSlice", "input": ["PartitionedCall/model_81/tf.math.multiply_925/Mul", "PartitionedCall/model_81/tf.strided_slice_70/StridedSlice/begin", "PartitionedCall/model_81/tf.strided_slice_70/StridedSlice/end", "PartitionedCall/model_81/tf.strided_slice_70/ones_like"], "attr": {"shrink_axis_mask": {"i": "0"}, "new_axis_mask": {"i": "0"}, "Index": {"type": "DT_INT32"}, "begin_mask": {"i": "7"}, "end_mask": {"i": "7"}, "T": {"type": "DT_FLOAT"}, "ellipsis_mask": {"i": "0"}}}, {"name": "PartitionedCall/model_81/tf.math.add_302/Add", "op": "_FusedConv2D", "input": ["PartitionedCall/model_81/tf.strided_slice_70/StridedSlice", "unknown_33", "unknown_34"], "device": "/device:CPU:0", "attr": {"num_host_args": {"i": "0"}, "data_format": {"s": "TkhXQw=="}, "filter_format": {"s": "SFdJTw=="}, "fused_ops": {"list": {"s": ["Qmlhc0FkZA=="]}}, "num_args": {"i": "1"}, "strides": {"list": {"i": ["1", "1", "1", "1"]}}, "TArgs": {"list": {"type": ["DT_FLOAT"]}}, "padding": {"s": "U0FNRQ=="}, "use_cudnn_on_gpu": {"b": true}, "leakyrelu_alpha": {"f": 0.2}, "epsilon": {"f": 0.0}, "T": {"type": "DT_FLOAT"}, "explicit_paddings": {"list": {}}, "dilations": {"list": {"i": ["1", "1", "1", "1"]}}}}, {"name": "PartitionedCall/model_81/tf.math.sigmoid_209/Sigmoid", "op": "Sigmoid", "input": ["PartitionedCall/model_81/tf.math.add_302/Add"], "attr": {"T": {"type": "DT_FLOAT"}}}, {"name": "PartitionedCall/model_81/tf.math.multiply_929/Mul", "op": "Mul", "input": ["PartitionedCall/model_81/tf.math.add_302/Add", "PartitionedCall/model_81/tf.math.sigmoid_209/Sigmoid"], "attr": {"T": {"type": "DT_FLOAT"}}}, {"name": "PartitionedCall/model_81/tf.math.add_303/Add", "op": "_FusedConv2D", "input": ["PartitionedCall/model_81/tf.math.multiply_929/Mul", "unknown_35", "unknown_36"], "device": "/device:CPU:0", "attr": {"num_host_args": {"i": "0"}, "data_format": {"s": "TkhXQw=="}, "filter_format": {"s": "SFdJTw=="}, "strides": {"list": {"i": ["1", "1", "1", "1"]}}, "num_args": {"i": "1"}, "fused_ops": {"list": {"s": ["Qmlhc0FkZA=="]}}, "TArgs": {"list": {"type": ["DT_FLOAT"]}}, "padding": {"s": "U0FNRQ=="}, "use_cudnn_on_gpu": {"b": true}, "leakyrelu_alpha": {"f": 0.2}, "epsilon": {"f": 0.0}, "T": {"type": "DT_FLOAT"}, "explicit_paddings": {"list": {}}, "dilations": {"list": {"i": ["1", "1", "1", "1"]}}}}, {"name": "PartitionedCall/model_81/tf.math.sigmoid_210/Sigmoid", "op": "Sigmoid", "input": ["PartitionedCall/model_81/tf.math.add_303/Add"], "attr": {"T": {"type": "DT_FLOAT"}}}, {"name": "PartitionedCall/model_81/tf.math.multiply_933/Mul", "op": "Mul", "input": ["PartitionedCall/model_81/tf.math.add_303/Add", "PartitionedCall/model_81/tf.math.sigmoid_210/Sigmoid"], "attr": {"T": {"type": "DT_FLOAT"}}}, {"name": "PartitionedCall/model_81/tf.math.add_305/Add", "op": "AddV2", "input": ["PartitionedCall/model_81/tf.strided_slice_70/StridedSlice", "PartitionedCall/model_81/tf.math.multiply_933/Mul"], "attr": {"T": {"type": "DT_FLOAT"}}}, {"name": "PartitionedCall/model_81/tf.math.add_306/Add", "op": "_FusedConv2D", "input": ["PartitionedCall/model_81/tf.math.add_305/Add", "unknown_37", "unknown_38"], "device": "/device:CPU:0", "attr": {"num_host_args": {"i": "0"}, "data_format": {"s": "TkhXQw=="}, "filter_format": {"s": "SFdJTw=="}, "fused_ops": {"list": {"s": ["Qmlhc0FkZA=="]}}, "num_args": {"i": "1"}, "strides": {"list": {"i": ["1", "1", "1", "1"]}}, "TArgs": {"list": {"type": ["DT_FLOAT"]}}, "padding": {"s": "U0FNRQ=="}, "use_cudnn_on_gpu": {"b": true}, "leakyrelu_alpha": {"f": 0.2}, "epsilon": {"f": 0.0}, "T": {"type": "DT_FLOAT"}, "explicit_paddings": {"list": {}}, "dilations": {"list": {"i": ["1", "1", "1", "1"]}}}}, {"name": "PartitionedCall/model_81/tf.math.sigmoid_211/Sigmoid", "op": "Sigmoid", "input": ["PartitionedCall/model_81/tf.math.add_306/Add"], "attr": {"T": {"type": "DT_FLOAT"}}}, {"name": "PartitionedCall/model_81/tf.math.multiply_939/Mul", "op": "Mul", "input": ["PartitionedCall/model_81/tf.math.add_306/Add", "PartitionedCall/model_81/tf.math.sigmoid_211/Sigmoid"], "attr": {"T": {"type": "DT_FLOAT"}}}, {"name": "PartitionedCall/model_81/tf.math.add_307/Add", "op": "_FusedConv2D", "input": ["PartitionedCall/model_81/tf.math.multiply_939/Mul", "unknown_39", "unknown_40"], "device": "/device:CPU:0", "attr": {"num_host_args": {"i": "0"}, "data_format": {"s": "TkhXQw=="}, "filter_format": {"s": "SFdJTw=="}, "fused_ops": {"list": {"s": ["Qmlhc0FkZA=="]}}, "num_args": {"i": "1"}, "strides": {"list": {"i": ["1", "1", "1", "1"]}}, "TArgs": {"list": {"type": ["DT_FLOAT"]}}, "padding": {"s": "U0FNRQ=="}, "use_cudnn_on_gpu": {"b": true}, "leakyrelu_alpha": {"f": 0.2}, "epsilon": {"f": 0.0}, "T": {"type": "DT_FLOAT"}, "explicit_paddings": {"list": {}}, "dilations": {"list": {"i": ["1", "1", "1", "1"]}}}}, {"name": "PartitionedCall/model_81/tf.math.sigmoid_212/Sigmoid", "op": "Sigmoid", "input": ["PartitionedCall/model_81/tf.math.add_307/Add"], "attr": {"T": {"type": "DT_FLOAT"}}}, {"name": "PartitionedCall/model_81/tf.math.multiply_943/Mul", "op": "Mul", "input": ["PartitionedCall/model_81/tf.math.add_307/Add", "PartitionedCall/model_81/tf.math.sigmoid_212/Sigmoid"], "attr": {"T": {"type": "DT_FLOAT"}}}, {"name": "PartitionedCall/model_81/tf.math.add_309/Add", "op": "AddV2", "input": ["PartitionedCall/model_81/tf.math.add_305/Add", "PartitionedCall/model_81/tf.math.multiply_943/Mul"], "attr": {"T": {"type": "DT_FLOAT"}}}, {"name": "PartitionedCall/model_81/tf.concat_68/concat", "op": "ConcatV2", "input": ["PartitionedCall/model_81/tf.strided_slice_69/StridedSlice", "PartitionedCall/model_81/tf.strided_slice_70/StridedSlice", "PartitionedCall/model_81/tf.math.add_305/Add", "PartitionedCall/model_81/tf.math.add_309/Add", "PartitionedCall/model_81/tf.concat_68/concat/axis"], "attr": {"N": {"i": "4"}, "T": {"type": "DT_FLOAT"}, "Tidx": {"type": "DT_INT32"}}}, {"name": "PartitionedCall/model_81/tf.math.add_310/Add", "op": "_FusedConv2D", "input": ["PartitionedCall/model_81/tf.concat_68/concat", "unknown_41", "unknown_42"], "device": "/device:CPU:0", "attr": {"num_host_args": {"i": "0"}, "data_format": {"s": "TkhXQw=="}, "filter_format": {"s": "SFdJTw=="}, "strides": {"list": {"i": ["1", "1", "1", "1"]}}, "num_args": {"i": "1"}, "fused_ops": {"list": {"s": ["Qmlhc0FkZA=="]}}, "TArgs": {"list": {"type": ["DT_FLOAT"]}}, "padding": {"s": "U0FNRQ=="}, "use_cudnn_on_gpu": {"b": true}, "leakyrelu_alpha": {"f": 0.2}, "epsilon": {"f": 0.0}, "T": {"type": "DT_FLOAT"}, "explicit_paddings": {"list": {}}, "dilations": {"list": {"i": ["1", "1", "1", "1"]}}}}, {"name": "PartitionedCall/model_81/tf.math.sigmoid_213/Sigmoid", "op": "Sigmoid", "input": ["PartitionedCall/model_81/tf.math.add_310/Add"], "attr": {"T": {"type": "DT_FLOAT"}}}, {"name": "PartitionedCall/model_81/tf.math.multiply_949/Mul", "op": "Mul", "input": ["PartitionedCall/model_81/tf.math.add_310/Add", "PartitionedCall/model_81/tf.math.sigmoid_213/Sigmoid"], "attr": {"T": {"type": "DT_FLOAT"}}}, {"name": "PartitionedCall/model_81/tf.compat.v1.pad_25/Pad", "op": "Pad", "input": ["PartitionedCall/model_81/tf.math.multiply_949/Mul", "unknown_43"], "attr": {"Tpaddings": {"type": "DT_INT32"}, "T": {"type": "DT_FLOAT"}}}, {"name": "PartitionedCall/model_81/tf.math.add_311/Add", "op": "_FusedConv2D", "input": ["PartitionedCall/model_81/tf.compat.v1.pad_25/Pad", "unknown_44", "unknown_45"], "device": "/device:CPU:0", "attr": {"num_host_args": {"i": "0"}, "data_format": {"s": "TkhXQw=="}, "filter_format": {"s": "SFdJTw=="}, "strides": {"list": {"i": ["1", "2", "2", "1"]}}, "num_args": {"i": "1"}, "fused_ops": {"list": {"s": ["Qmlhc0FkZA=="]}}, "TArgs": {"list": {"type": ["DT_FLOAT"]}}, "padding": {"s": "VkFMSUQ="}, "use_cudnn_on_gpu": {"b": true}, "leakyrelu_alpha": {"f": 0.2}, "epsilon": {"f": 0.0}, "T": {"type": "DT_FLOAT"}, "explicit_paddings": {"list": {}}, "dilations": {"list": {"i": ["1", "1", "1", "1"]}}}}, {"name": "PartitionedCall/model_81/tf.math.sigmoid_214/Sigmoid", "op": "Sigmoid", "input": ["PartitionedCall/model_81/tf.math.add_311/Add"], "attr": {"T": {"type": "DT_FLOAT"}}}, {"name": "PartitionedCall/model_81/tf.math.multiply_953/Mul", "op": "Mul", "input": ["PartitionedCall/model_81/tf.math.add_311/Add", "PartitionedCall/model_81/tf.math.sigmoid_214/Sigmoid"], "attr": {"T": {"type": "DT_FLOAT"}}}, {"name": "PartitionedCall/model_81/tf.math.add_312/Add", "op": "_FusedConv2D", "input": ["PartitionedCall/model_81/tf.math.multiply_953/Mul", "unknown_46", "unknown_47"], "device": "/device:CPU:0", "attr": {"num_host_args": {"i": "0"}, "data_format": {"s": "TkhXQw=="}, "filter_format": {"s": "SFdJTw=="}, "strides": {"list": {"i": ["1", "1", "1", "1"]}}, "num_args": {"i": "1"}, "fused_ops": {"list": {"s": ["Qmlhc0FkZA=="]}}, "TArgs": {"list": {"type": ["DT_FLOAT"]}}, "padding": {"s": "U0FNRQ=="}, "use_cudnn_on_gpu": {"b": true}, "leakyrelu_alpha": {"f": 0.2}, "epsilon": {"f": 0.0}, "T": {"type": "DT_FLOAT"}, "explicit_paddings": {"list": {}}, "dilations": {"list": {"i": ["1", "1", "1", "1"]}}}}, {"name": "PartitionedCall/model_81/tf.math.sigmoid_215/Sigmoid", "op": "Sigmoid", "input": ["PartitionedCall/model_81/tf.math.add_312/Add"], "attr": {"T": {"type": "DT_FLOAT"}}}, {"name": "PartitionedCall/model_81/tf.math.multiply_957/Mul", "op": "Mul", "input": ["PartitionedCall/model_81/tf.math.add_312/Add", "PartitionedCall/model_81/tf.math.sigmoid_215/Sigmoid"], "attr": {"T": {"type": "DT_FLOAT"}}}, {"name": "PartitionedCall/model_81/tf.strided_slice_71/StridedSlice", "op": "StridedSlice", "input": ["PartitionedCall/model_81/tf.math.multiply_957/Mul", "PartitionedCall/model_81/tf.strided_slice_71/StridedSlice/begin", "PartitionedCall/model_81/tf.strided_slice_71/StridedSlice/end", "PartitionedCall/model_81/tf.strided_slice_71/ones_like"], "attr": {"shrink_axis_mask": {"i": "0"}, "Index": {"type": "DT_INT32"}, "new_axis_mask": {"i": "0"}, "begin_mask": {"i": "7"}, "T": {"type": "DT_FLOAT"}, "end_mask": {"i": "7"}, "ellipsis_mask": {"i": "0"}}}, {"name": "PartitionedCall/model_81/tf.strided_slice_72/StridedSlice", "op": "StridedSlice", "input": ["PartitionedCall/model_81/tf.math.multiply_957/Mul", "PartitionedCall/model_81/tf.strided_slice_72/StridedSlice/begin", "PartitionedCall/model_81/tf.strided_slice_72/StridedSlice/end", "PartitionedCall/model_81/tf.strided_slice_72/ones_like"], "attr": {"shrink_axis_mask": {"i": "0"}, "new_axis_mask": {"i": "0"}, "Index": {"type": "DT_INT32"}, "begin_mask": {"i": "7"}, "end_mask": {"i": "7"}, "T": {"type": "DT_FLOAT"}, "ellipsis_mask": {"i": "0"}}}, {"name": "PartitionedCall/model_81/tf.math.add_313/Add", "op": "_FusedConv2D", "input": ["PartitionedCall/model_81/tf.strided_slice_72/StridedSlice", "unknown_48", "unknown_49"], "device": "/device:CPU:0", "attr": {"num_host_args": {"i": "0"}, "data_format": {"s": "TkhXQw=="}, "filter_format": {"s": "SFdJTw=="}, "fused_ops": {"list": {"s": ["Qmlhc0FkZA=="]}}, "num_args": {"i": "1"}, "strides": {"list": {"i": ["1", "1", "1", "1"]}}, "TArgs": {"list": {"type": ["DT_FLOAT"]}}, "padding": {"s": "U0FNRQ=="}, "use_cudnn_on_gpu": {"b": true}, "leakyrelu_alpha": {"f": 0.2}, "epsilon": {"f": 0.0}, "T": {"type": "DT_FLOAT"}, "explicit_paddings": {"list": {}}, "dilations": {"list": {"i": ["1", "1", "1", "1"]}}}}, {"name": "PartitionedCall/model_81/tf.math.sigmoid_216/Sigmoid", "op": "Sigmoid", "input": ["PartitionedCall/model_81/tf.math.add_313/Add"], "attr": {"T": {"type": "DT_FLOAT"}}}, {"name": "PartitionedCall/model_81/tf.math.multiply_961/Mul", "op": "Mul", "input": ["PartitionedCall/model_81/tf.math.add_313/Add", "PartitionedCall/model_81/tf.math.sigmoid_216/Sigmoid"], "attr": {"T": {"type": "DT_FLOAT"}}}, {"name": "PartitionedCall/model_81/tf.math.add_314/Add", "op": "_FusedConv2D", "input": ["PartitionedCall/model_81/tf.math.multiply_961/Mul", "unknown_50", "unknown_51"], "device": "/device:CPU:0", "attr": {"num_host_args": {"i": "0"}, "data_format": {"s": "TkhXQw=="}, "filter_format": {"s": "SFdJTw=="}, "strides": {"list": {"i": ["1", "1", "1", "1"]}}, "num_args": {"i": "1"}, "fused_ops": {"list": {"s": ["Qmlhc0FkZA=="]}}, "TArgs": {"list": {"type": ["DT_FLOAT"]}}, "padding": {"s": "U0FNRQ=="}, "use_cudnn_on_gpu": {"b": true}, "leakyrelu_alpha": {"f": 0.2}, "epsilon": {"f": 0.0}, "T": {"type": "DT_FLOAT"}, "explicit_paddings": {"list": {}}, "dilations": {"list": {"i": ["1", "1", "1", "1"]}}}}, {"name": "PartitionedCall/model_81/tf.math.sigmoid_217/Sigmoid", "op": "Sigmoid", "input": ["PartitionedCall/model_81/tf.math.add_314/Add"], "attr": {"T": {"type": "DT_FLOAT"}}}, {"name": "PartitionedCall/model_81/tf.math.multiply_965/Mul", "op": "Mul", "input": ["PartitionedCall/model_81/tf.math.add_314/Add", "PartitionedCall/model_81/tf.math.sigmoid_217/Sigmoid"], "attr": {"T": {"type": "DT_FLOAT"}}}, {"name": "PartitionedCall/model_81/tf.math.add_316/Add", "op": "AddV2", "input": ["PartitionedCall/model_81/tf.strided_slice_72/StridedSlice", "PartitionedCall/model_81/tf.math.multiply_965/Mul"], "attr": {"T": {"type": "DT_FLOAT"}}}, {"name": "PartitionedCall/model_81/tf.concat_69/concat", "op": "ConcatV2", "input": ["PartitionedCall/model_81/tf.strided_slice_71/StridedSlice", "PartitionedCall/model_81/tf.strided_slice_72/StridedSlice", "PartitionedCall/model_81/tf.math.add_316/Add", "PartitionedCall/model_81/tf.concat_69/concat/axis"], "attr": {"N": {"i": "3"}, "T": {"type": "DT_FLOAT"}, "Tidx": {"type": "DT_INT32"}}}, {"name": "PartitionedCall/model_81/tf.math.add_317/Add", "op": "_FusedConv2D", "input": ["PartitionedCall/model_81/tf.concat_69/concat", "unknown_52", "unknown_53"], "device": "/device:CPU:0", "attr": {"num_host_args": {"i": "0"}, "data_format": {"s": "TkhXQw=="}, "filter_format": {"s": "SFdJTw=="}, "strides": {"list": {"i": ["1", "1", "1", "1"]}}, "num_args": {"i": "1"}, "fused_ops": {"list": {"s": ["Qmlhc0FkZA=="]}}, "TArgs": {"list": {"type": ["DT_FLOAT"]}}, "padding": {"s": "U0FNRQ=="}, "use_cudnn_on_gpu": {"b": true}, "leakyrelu_alpha": {"f": 0.2}, "epsilon": {"f": 0.0}, "T": {"type": "DT_FLOAT"}, "explicit_paddings": {"list": {}}, "dilations": {"list": {"i": ["1", "1", "1", "1"]}}}}, {"name": "PartitionedCall/model_81/tf.math.sigmoid_218/Sigmoid", "op": "Sigmoid", "input": ["PartitionedCall/model_81/tf.math.add_317/Add"], "attr": {"T": {"type": "DT_FLOAT"}}}, {"name": "PartitionedCall/model_81/tf.math.multiply_971/Mul", "op": "Mul", "input": ["PartitionedCall/model_81/tf.math.add_317/Add", "PartitionedCall/model_81/tf.math.sigmoid_218/Sigmoid"], "attr": {"T": {"type": "DT_FLOAT"}}}, {"name": "PartitionedCall/model_81/tf.math.add_318/Add", "op": "_FusedConv2D", "input": ["PartitionedCall/model_81/tf.math.multiply_971/Mul", "unknown_54", "unknown_55"], "device": "/device:CPU:0", "attr": {"num_host_args": {"i": "0"}, "data_format": {"s": "TkhXQw=="}, "filter_format": {"s": "SFdJTw=="}, "fused_ops": {"list": {"s": ["Qmlhc0FkZA=="]}}, "num_args": {"i": "1"}, "strides": {"list": {"i": ["1", "1", "1", "1"]}}, "TArgs": {"list": {"type": ["DT_FLOAT"]}}, "padding": {"s": "U0FNRQ=="}, "use_cudnn_on_gpu": {"b": true}, "leakyrelu_alpha": {"f": 0.2}, "epsilon": {"f": 0.0}, "T": {"type": "DT_FLOAT"}, "explicit_paddings": {"list": {}}, "dilations": {"list": {"i": ["1", "1", "1", "1"]}}}}, {"name": "PartitionedCall/model_81/tf.math.sigmoid_219/Sigmoid", "op": "Sigmoid", "input": ["PartitionedCall/model_81/tf.math.add_318/Add"], "attr": {"T": {"type": "DT_FLOAT"}}}, {"name": "PartitionedCall/model_81/tf.math.multiply_975/Mul", "op": "Mul", "input": ["PartitionedCall/model_81/tf.math.add_318/Add", "PartitionedCall/model_81/tf.math.sigmoid_219/Sigmoid"], "attr": {"T": {"type": "DT_FLOAT"}}}, {"name": "PartitionedCall/model_81/tf.compat.v1.nn.pool_9/max_pool", "op": "MaxPool", "input": ["PartitionedCall/model_81/tf.math.multiply_975/Mul"], "attr": {"padding": {"s": "U0FNRQ=="}, "data_format": {"s": "TkhXQw=="}, "T": {"type": "DT_FLOAT"}, "explicit_paddings": {"list": {}}, "ksize": {"list": {"i": ["1", "5", "5", "1"]}}, "strides": {"list": {"i": ["1", "1", "1", "1"]}}}}, {"name": "PartitionedCall/model_81/tf.compat.v1.nn.pool_10/max_pool", "op": "MaxPool", "input": ["PartitionedCall/model_81/tf.compat.v1.nn.pool_9/max_pool"], "attr": {"padding": {"s": "U0FNRQ=="}, "data_format": {"s": "TkhXQw=="}, "T": {"type": "DT_FLOAT"}, "explicit_paddings": {"list": {}}, "ksize": {"list": {"i": ["1", "5", "5", "1"]}}, "strides": {"list": {"i": ["1", "1", "1", "1"]}}}}, {"name": "PartitionedCall/model_81/tf.compat.v1.nn.pool_11/max_pool", "op": "MaxPool", "input": ["PartitionedCall/model_81/tf.compat.v1.nn.pool_10/max_pool"], "attr": {"ksize": {"list": {"i": ["1", "5", "5", "1"]}}, "data_format": {"s": "TkhXQw=="}, "T": {"type": "DT_FLOAT"}, "explicit_paddings": {"list": {}}, "padding": {"s": "U0FNRQ=="}, "strides": {"list": {"i": ["1", "1", "1", "1"]}}}}, {"name": "PartitionedCall/model_81/tf.concat_70/concat", "op": "ConcatV2", "input": ["PartitionedCall/model_81/tf.math.multiply_975/Mul", "PartitionedCall/model_81/tf.compat.v1.nn.pool_9/max_pool", "PartitionedCall/model_81/tf.compat.v1.nn.pool_10/max_pool", "PartitionedCall/model_81/tf.compat.v1.nn.pool_11/max_pool", "PartitionedCall/model_81/tf.concat_70/concat/axis"], "attr": {"N": {"i": "4"}, "T": {"type": "DT_FLOAT"}, "Tidx": {"type": "DT_INT32"}}}, {"name": "PartitionedCall/model_81/tf.math.add_319/Add", "op": "_FusedConv2D", "input": ["PartitionedCall/model_81/tf.concat_70/concat", "unknown_56", "unknown_57"], "device": "/device:CPU:0", "attr": {"num_host_args": {"i": "0"}, "data_format": {"s": "TkhXQw=="}, "filter_format": {"s": "SFdJTw=="}, "strides": {"list": {"i": ["1", "1", "1", "1"]}}, "num_args": {"i": "1"}, "fused_ops": {"list": {"s": ["Qmlhc0FkZA=="]}}, "TArgs": {"list": {"type": ["DT_FLOAT"]}}, "padding": {"s": "U0FNRQ=="}, "use_cudnn_on_gpu": {"b": true}, "leakyrelu_alpha": {"f": 0.2}, "epsilon": {"f": 0.0}, "T": {"type": "DT_FLOAT"}, "explicit_paddings": {"list": {}}, "dilations": {"list": {"i": ["1", "1", "1", "1"]}}}}, {"name": "PartitionedCall/model_81/tf.math.sigmoid_220/Sigmoid", "op": "Sigmoid", "input": ["PartitionedCall/model_81/tf.math.add_319/Add"], "attr": {"T": {"type": "DT_FLOAT"}}}, {"name": "PartitionedCall/model_81/tf.math.multiply_979/Mul", "op": "Mul", "input": ["PartitionedCall/model_81/tf.math.add_319/Add", "PartitionedCall/model_81/tf.math.sigmoid_220/Sigmoid"], "attr": {"T": {"type": "DT_FLOAT"}}}, {"name": "PartitionedCall/model_81/tf.image.resize_6/resize/ResizeNearestNeighbor", "op": "ResizeNearestNeighbor", "input": ["PartitionedCall/model_81/tf.math.multiply_979/Mul", "PartitionedCall/model_81/tf.image.resize_6/resize/size"], "attr": {"T": {"type": "DT_FLOAT"}, "align_corners": {"b": false}, "half_pixel_centers": {"b": true}}}, {"name": "PartitionedCall/model_81/tf.concat_71/concat", "op": "ConcatV2", "input": ["PartitionedCall/model_81/tf.image.resize_6/resize/ResizeNearestNeighbor", "PartitionedCall/model_81/tf.math.multiply_949/Mul", "PartitionedCall/model_81/tf.concat_71/concat/axis"], "attr": {"N": {"i": "2"}, "T": {"type": "DT_FLOAT"}, "Tidx": {"type": "DT_INT32"}}}, {"name": "PartitionedCall/model_81/tf.math.add_320/Add", "op": "_FusedConv2D", "input": ["PartitionedCall/model_81/tf.concat_71/concat", "unknown_58", "unknown_59"], "device": "/device:CPU:0", "attr": {"num_host_args": {"i": "0"}, "data_format": {"s": "TkhXQw=="}, "filter_format": {"s": "SFdJTw=="}, "fused_ops": {"list": {"s": ["Qmlhc0FkZA=="]}}, "num_args": {"i": "1"}, "strides": {"list": {"i": ["1", "1", "1", "1"]}}, "TArgs": {"list": {"type": ["DT_FLOAT"]}}, "padding": {"s": "U0FNRQ=="}, "use_cudnn_on_gpu": {"b": true}, "leakyrelu_alpha": {"f": 0.2}, "epsilon": {"f": 0.0}, "T": {"type": "DT_FLOAT"}, "explicit_paddings": {"list": {}}, "dilations": {"list": {"i": ["1", "1", "1", "1"]}}}}, {"name": "PartitionedCall/model_81/tf.math.sigmoid_221/Sigmoid", "op": "Sigmoid", "input": ["PartitionedCall/model_81/tf.math.add_320/Add"], "attr": {"T": {"type": "DT_FLOAT"}}}, {"name": "PartitionedCall/model_81/tf.math.multiply_983/Mul", "op": "Mul", "input": ["PartitionedCall/model_81/tf.math.add_320/Add", "PartitionedCall/model_81/tf.math.sigmoid_221/Sigmoid"], "attr": {"T": {"type": "DT_FLOAT"}}}, {"name": "PartitionedCall/model_81/tf.strided_slice_73/StridedSlice", "op": "StridedSlice", "input": ["PartitionedCall/model_81/tf.math.multiply_983/Mul", "PartitionedCall/model_81/tf.strided_slice_73/StridedSlice/begin", "PartitionedCall/model_81/tf.strided_slice_73/StridedSlice/end", "PartitionedCall/model_81/tf.strided_slice_73/ones_like"], "attr": {"shrink_axis_mask": {"i": "0"}, "Index": {"type": "DT_INT32"}, "new_axis_mask": {"i": "0"}, "begin_mask": {"i": "7"}, "end_mask": {"i": "7"}, "T": {"type": "DT_FLOAT"}, "ellipsis_mask": {"i": "0"}}}, {"name": "PartitionedCall/model_81/tf.strided_slice_74/StridedSlice", "op": "StridedSlice", "input": ["PartitionedCall/model_81/tf.math.multiply_983/Mul", "PartitionedCall/model_81/tf.strided_slice_74/StridedSlice/begin", "PartitionedCall/model_81/tf.strided_slice_74/StridedSlice/end", "PartitionedCall/model_81/tf.strided_slice_74/ones_like"], "attr": {"shrink_axis_mask": {"i": "0"}, "Index": {"type": "DT_INT32"}, "new_axis_mask": {"i": "0"}, "begin_mask": {"i": "7"}, "T": {"type": "DT_FLOAT"}, "end_mask": {"i": "7"}, "ellipsis_mask": {"i": "0"}}}, {"name": "PartitionedCall/model_81/tf.math.add_321/Add", "op": "_FusedConv2D", "input": ["PartitionedCall/model_81/tf.strided_slice_74/StridedSlice", "unknown_60", "unknown_61"], "device": "/device:CPU:0", "attr": {"num_host_args": {"i": "0"}, "data_format": {"s": "TkhXQw=="}, "filter_format": {"s": "SFdJTw=="}, "strides": {"list": {"i": ["1", "1", "1", "1"]}}, "num_args": {"i": "1"}, "fused_ops": {"list": {"s": ["Qmlhc0FkZA=="]}}, "TArgs": {"list": {"type": ["DT_FLOAT"]}}, "padding": {"s": "U0FNRQ=="}, "use_cudnn_on_gpu": {"b": true}, "leakyrelu_alpha": {"f": 0.2}, "epsilon": {"f": 0.0}, "T": {"type": "DT_FLOAT"}, "explicit_paddings": {"list": {}}, "dilations": {"list": {"i": ["1", "1", "1", "1"]}}}}, {"name": "PartitionedCall/model_81/tf.math.sigmoid_222/Sigmoid", "op": "Sigmoid", "input": ["PartitionedCall/model_81/tf.math.add_321/Add"], "attr": {"T": {"type": "DT_FLOAT"}}}, {"name": "PartitionedCall/model_81/tf.math.multiply_987/Mul", "op": "Mul", "input": ["PartitionedCall/model_81/tf.math.add_321/Add", "PartitionedCall/model_81/tf.math.sigmoid_222/Sigmoid"], "attr": {"T": {"type": "DT_FLOAT"}}}, {"name": "PartitionedCall/model_81/tf.math.add_322/Add", "op": "_FusedConv2D", "input": ["PartitionedCall/model_81/tf.math.multiply_987/Mul", "unknown_62", "unknown_63"], "device": "/device:CPU:0", "attr": {"num_host_args": {"i": "0"}, "data_format": {"s": "TkhXQw=="}, "filter_format": {"s": "SFdJTw=="}, "strides": {"list": {"i": ["1", "1", "1", "1"]}}, "num_args": {"i": "1"}, "fused_ops": {"list": {"s": ["Qmlhc0FkZA=="]}}, "TArgs": {"list": {"type": ["DT_FLOAT"]}}, "padding": {"s": "U0FNRQ=="}, "use_cudnn_on_gpu": {"b": true}, "leakyrelu_alpha": {"f": 0.2}, "epsilon": {"f": 0.0}, "T": {"type": "DT_FLOAT"}, "explicit_paddings": {"list": {}}, "dilations": {"list": {"i": ["1", "1", "1", "1"]}}}}, {"name": "PartitionedCall/model_81/tf.math.sigmoid_223/Sigmoid", "op": "Sigmoid", "input": ["PartitionedCall/model_81/tf.math.add_322/Add"], "attr": {"T": {"type": "DT_FLOAT"}}}, {"name": "PartitionedCall/model_81/tf.math.multiply_991/Mul", "op": "Mul", "input": ["PartitionedCall/model_81/tf.math.add_322/Add", "PartitionedCall/model_81/tf.math.sigmoid_223/Sigmoid"], "attr": {"T": {"type": "DT_FLOAT"}}}, {"name": "PartitionedCall/model_81/tf.concat_72/concat", "op": "ConcatV2", "input": ["PartitionedCall/model_81/tf.strided_slice_73/StridedSlice", "PartitionedCall/model_81/tf.strided_slice_74/StridedSlice", "PartitionedCall/model_81/tf.math.multiply_991/Mul", "PartitionedCall/model_81/tf.concat_72/concat/axis"], "attr": {"N": {"i": "3"}, "T": {"type": "DT_FLOAT"}, "Tidx": {"type": "DT_INT32"}}}, {"name": "PartitionedCall/model_81/tf.math.add_323/Add", "op": "_FusedConv2D", "input": ["PartitionedCall/model_81/tf.concat_72/concat", "unknown_64", "unknown_65"], "device": "/device:CPU:0", "attr": {"num_host_args": {"i": "0"}, "data_format": {"s": "TkhXQw=="}, "filter_format": {"s": "SFdJTw=="}, "strides": {"list": {"i": ["1", "1", "1", "1"]}}, "num_args": {"i": "1"}, "fused_ops": {"list": {"s": ["Qmlhc0FkZA=="]}}, "TArgs": {"list": {"type": ["DT_FLOAT"]}}, "padding": {"s": "U0FNRQ=="}, "use_cudnn_on_gpu": {"b": true}, "leakyrelu_alpha": {"f": 0.2}, "epsilon": {"f": 0.0}, "T": {"type": "DT_FLOAT"}, "explicit_paddings": {"list": {}}, "dilations": {"list": {"i": ["1", "1", "1", "1"]}}}}, {"name": "PartitionedCall/model_81/tf.math.sigmoid_224/Sigmoid", "op": "Sigmoid", "input": ["PartitionedCall/model_81/tf.math.add_323/Add"], "attr": {"T": {"type": "DT_FLOAT"}}}, {"name": "PartitionedCall/model_81/tf.math.multiply_995/Mul", "op": "Mul", "input": ["PartitionedCall/model_81/tf.math.add_323/Add", "PartitionedCall/model_81/tf.math.sigmoid_224/Sigmoid"], "attr": {"T": {"type": "DT_FLOAT"}}}, {"name": "PartitionedCall/model_81/tf.image.resize_7/resize/ResizeNearestNeighbor", "op": "ResizeNearestNeighbor", "input": ["PartitionedCall/model_81/tf.math.multiply_995/Mul", "PartitionedCall/model_81/tf.image.resize_7/resize/size"], "attr": {"T": {"type": "DT_FLOAT"}, "align_corners": {"b": false}, "half_pixel_centers": {"b": true}}}, {"name": "PartitionedCall/model_81/tf.concat_73/concat", "op": "ConcatV2", "input": ["PartitionedCall/model_81/tf.image.resize_7/resize/ResizeNearestNeighbor", "PartitionedCall/model_81/tf.math.multiply_917/Mul", "PartitionedCall/model_81/tf.concat_73/concat/axis"], "attr": {"N": {"i": "2"}, "T": {"type": "DT_FLOAT"}, "Tidx": {"type": "DT_INT32"}}}, {"name": "PartitionedCall/model_81/tf.math.add_324/Add", "op": "_FusedConv2D", "input": ["PartitionedCall/model_81/tf.concat_73/concat", "unknown_66", "unknown_67"], "device": "/device:CPU:0", "attr": {"num_host_args": {"i": "0"}, "data_format": {"s": "TkhXQw=="}, "filter_format": {"s": "SFdJTw=="}, "strides": {"list": {"i": ["1", "1", "1", "1"]}}, "num_args": {"i": "1"}, "fused_ops": {"list": {"s": ["Qmlhc0FkZA=="]}}, "TArgs": {"list": {"type": ["DT_FLOAT"]}}, "padding": {"s": "U0FNRQ=="}, "use_cudnn_on_gpu": {"b": true}, "leakyrelu_alpha": {"f": 0.2}, "epsilon": {"f": 0.0}, "T": {"type": "DT_FLOAT"}, "explicit_paddings": {"list": {}}, "dilations": {"list": {"i": ["1", "1", "1", "1"]}}}}, {"name": "PartitionedCall/model_81/tf.math.sigmoid_225/Sigmoid", "op": "Sigmoid", "input": ["PartitionedCall/model_81/tf.math.add_324/Add"], "attr": {"T": {"type": "DT_FLOAT"}}}, {"name": "PartitionedCall/model_81/tf.math.multiply_999/Mul", "op": "Mul", "input": ["PartitionedCall/model_81/tf.math.add_324/Add", "PartitionedCall/model_81/tf.math.sigmoid_225/Sigmoid"], "attr": {"T": {"type": "DT_FLOAT"}}}, {"name": "PartitionedCall/model_81/tf.strided_slice_75/StridedSlice", "op": "StridedSlice", "input": ["PartitionedCall/model_81/tf.math.multiply_999/Mul", "PartitionedCall/model_81/tf.strided_slice_75/StridedSlice/begin", "PartitionedCall/model_81/tf.strided_slice_75/StridedSlice/end", "PartitionedCall/model_81/tf.strided_slice_75/ones_like"], "attr": {"shrink_axis_mask": {"i": "0"}, "new_axis_mask": {"i": "0"}, "Index": {"type": "DT_INT32"}, "begin_mask": {"i": "7"}, "T": {"type": "DT_FLOAT"}, "end_mask": {"i": "7"}, "ellipsis_mask": {"i": "0"}}}, {"name": "PartitionedCall/model_81/tf.strided_slice_76/StridedSlice", "op": "StridedSlice", "input": ["PartitionedCall/model_81/tf.math.multiply_999/Mul", "PartitionedCall/model_81/tf.strided_slice_76/StridedSlice/begin", "PartitionedCall/model_81/tf.strided_slice_76/StridedSlice/end", "PartitionedCall/model_81/tf.strided_slice_76/ones_like"], "attr": {"shrink_axis_mask": {"i": "0"}, "Index": {"type": "DT_INT32"}, "new_axis_mask": {"i": "0"}, "begin_mask": {"i": "7"}, "end_mask": {"i": "7"}, "T": {"type": "DT_FLOAT"}, "ellipsis_mask": {"i": "0"}}}, {"name": "PartitionedCall/model_81/tf.math.add_325/Add", "op": "_FusedConv2D", "input": ["PartitionedCall/model_81/tf.strided_slice_76/StridedSlice", "unknown_68", "unknown_69"], "device": "/device:CPU:0", "attr": {"num_host_args": {"i": "0"}, "data_format": {"s": "TkhXQw=="}, "filter_format": {"s": "SFdJTw=="}, "fused_ops": {"list": {"s": ["Qmlhc0FkZA=="]}}, "num_args": {"i": "1"}, "strides": {"list": {"i": ["1", "1", "1", "1"]}}, "TArgs": {"list": {"type": ["DT_FLOAT"]}}, "padding": {"s": "U0FNRQ=="}, "use_cudnn_on_gpu": {"b": true}, "leakyrelu_alpha": {"f": 0.2}, "epsilon": {"f": 0.0}, "T": {"type": "DT_FLOAT"}, "explicit_paddings": {"list": {}}, "dilations": {"list": {"i": ["1", "1", "1", "1"]}}}}, {"name": "PartitionedCall/model_81/tf.math.sigmoid_226/Sigmoid", "op": "Sigmoid", "input": ["PartitionedCall/model_81/tf.math.add_325/Add"], "attr": {"T": {"type": "DT_FLOAT"}}}, {"name": "PartitionedCall/model_81/tf.math.multiply_1003/Mul", "op": "Mul", "input": ["PartitionedCall/model_81/tf.math.add_325/Add", "PartitionedCall/model_81/tf.math.sigmoid_226/Sigmoid"], "attr": {"T": {"type": "DT_FLOAT"}}}, {"name": "PartitionedCall/model_81/tf.math.add_326/Add", "op": "_FusedConv2D", "input": ["PartitionedCall/model_81/tf.math.multiply_1003/Mul", "unknown_70", "unknown_71"], "device": "/device:CPU:0", "attr": {"num_host_args": {"i": "0"}, "data_format": {"s": "TkhXQw=="}, "filter_format": {"s": "SFdJTw=="}, "fused_ops": {"list": {"s": ["Qmlhc0FkZA=="]}}, "num_args": {"i": "1"}, "strides": {"list": {"i": ["1", "1", "1", "1"]}}, "TArgs": {"list": {"type": ["DT_FLOAT"]}}, "padding": {"s": "U0FNRQ=="}, "use_cudnn_on_gpu": {"b": true}, "leakyrelu_alpha": {"f": 0.2}, "epsilon": {"f": 0.0}, "T": {"type": "DT_FLOAT"}, "explicit_paddings": {"list": {}}, "dilations": {"list": {"i": ["1", "1", "1", "1"]}}}}, {"name": "PartitionedCall/model_81/tf.math.sigmoid_227/Sigmoid", "op": "Sigmoid", "input": ["PartitionedCall/model_81/tf.math.add_326/Add"], "attr": {"T": {"type": "DT_FLOAT"}}}, {"name": "PartitionedCall/model_81/tf.math.multiply_1007/Mul", "op": "Mul", "input": ["PartitionedCall/model_81/tf.math.add_326/Add", "PartitionedCall/model_81/tf.math.sigmoid_227/Sigmoid"], "attr": {"T": {"type": "DT_FLOAT"}}}, {"name": "PartitionedCall/model_81/tf.concat_74/concat", "op": "ConcatV2", "input": ["PartitionedCall/model_81/tf.strided_slice_75/StridedSlice", "PartitionedCall/model_81/tf.strided_slice_76/StridedSlice", "PartitionedCall/model_81/tf.math.multiply_1007/Mul", "PartitionedCall/model_81/tf.concat_74/concat/axis"], "attr": {"N": {"i": "3"}, "T": {"type": "DT_FLOAT"}, "Tidx": {"type": "DT_INT32"}}}, {"name": "PartitionedCall/model_81/tf.math.add_327/Add", "op": "_FusedConv2D", "input": ["PartitionedCall/model_81/tf.concat_74/concat", "unknown_72", "unknown_73"], "device": "/device:CPU:0", "attr": {"num_host_args": {"i": "0"}, "data_format": {"s": "TkhXQw=="}, "filter_format": {"s": "SFdJTw=="}, "strides": {"list": {"i": ["1", "1", "1", "1"]}}, "num_args": {"i": "1"}, "fused_ops": {"list": {"s": ["Qmlhc0FkZA=="]}}, "TArgs": {"list": {"type": ["DT_FLOAT"]}}, "padding": {"s": "U0FNRQ=="}, "use_cudnn_on_gpu": {"b": true}, "leakyrelu_alpha": {"f": 0.2}, "epsilon": {"f": 0.0}, "T": {"type": "DT_FLOAT"}, "explicit_paddings": {"list": {}}, "dilations": {"list": {"i": ["1", "1", "1", "1"]}}}}, {"name": "PartitionedCall/model_81/tf.math.sigmoid_228/Sigmoid", "op": "Sigmoid", "input": ["PartitionedCall/model_81/tf.math.add_327/Add"], "attr": {"T": {"type": "DT_FLOAT"}}}, {"name": "PartitionedCall/model_81/tf.math.multiply_1011/Mul", "op": "Mul", "input": ["PartitionedCall/model_81/tf.math.add_327/Add", "PartitionedCall/model_81/tf.math.sigmoid_228/Sigmoid"], "attr": {"T": {"type": "DT_FLOAT"}}}, {"name": "PartitionedCall/model_81/tf.math.add_329/Add", "op": "_FusedConv2D", "input": ["PartitionedCall/model_81/tf.math.multiply_1011/Mul", "unknown_101", "unknown_107"], "device": "/device:CPU:0", "attr": {"num_host_args": {"i": "0"}, "data_format": {"s": "TkhXQw=="}, "filter_format": {"s": "SFdJTw=="}, "strides": {"list": {"i": ["1", "1", "1", "1"]}}, "num_args": {"i": "1"}, "fused_ops": {"list": {"s": ["Qmlhc0FkZA=="]}}, "TArgs": {"list": {"type": ["DT_FLOAT"]}}, "padding": {"s": "U0FNRQ=="}, "use_cudnn_on_gpu": {"b": true}, "leakyrelu_alpha": {"f": 0.2}, "epsilon": {"f": 0.0}, "T": {"type": "DT_FLOAT"}, "explicit_paddings": {"list": {}}, "dilations": {"list": {"i": ["1", "1", "1", "1"]}}}}, {"name": "PartitionedCall/model_81/tf.math.add_330/Add", "op": "_FusedConv2D", "input": ["PartitionedCall/model_81/tf.math.multiply_1011/Mul", "unknown_100", "unknown_106"], "device": "/device:CPU:0", "attr": {"num_host_args": {"i": "0"}, "data_format": {"s": "TkhXQw=="}, "filter_format": {"s": "SFdJTw=="}, "fused_ops": {"list": {"s": ["Qmlhc0FkZA=="]}}, "num_args": {"i": "1"}, "strides": {"list": {"i": ["1", "1", "1", "1"]}}, "TArgs": {"list": {"type": ["DT_FLOAT"]}}, "padding": {"s": "U0FNRQ=="}, "use_cudnn_on_gpu": {"b": true}, "leakyrelu_alpha": {"f": 0.2}, "epsilon": {"f": 0.0}, "T": {"type": "DT_FLOAT"}, "explicit_paddings": {"list": {}}, "dilations": {"list": {"i": ["1", "1", "1", "1"]}}}}, {"name": "PartitionedCall/model_81/tf.compat.v1.pad_26/Pad", "op": "Pad", "input": ["PartitionedCall/model_81/tf.math.multiply_1011/Mul", "unknown_74"], "attr": {"Tpaddings": {"type": "DT_INT32"}, "T": {"type": "DT_FLOAT"}}}, {"name": "PartitionedCall/model_81/tf.math.sigmoid_230/Sigmoid", "op": "Sigmoid", "input": ["PartitionedCall/model_81/tf.math.add_329/Add"], "attr": {"T": {"type": "DT_FLOAT"}}}, {"name": "PartitionedCall/model_81/tf.math.sigmoid_231/Sigmoid", "op": "Sigmoid", "input": ["PartitionedCall/model_81/tf.math.add_330/Add"], "attr": {"T": {"type": "DT_FLOAT"}}}, {"name": "PartitionedCall/model_81/tf.math.add_328/Add", "op": "_FusedConv2D", "input": ["PartitionedCall/model_81/tf.compat.v1.pad_26/Pad", "unknown_75", "unknown_76"], "device": "/device:CPU:0", "attr": {"num_host_args": {"i": "0"}, "data_format": {"s": "TkhXQw=="}, "filter_format": {"s": "SFdJTw=="}, "strides": {"list": {"i": ["1", "2", "2", "1"]}}, "num_args": {"i": "1"}, "fused_ops": {"list": {"s": ["Qmlhc0FkZA=="]}}, "TArgs": {"list": {"type": ["DT_FLOAT"]}}, "padding": {"s": "VkFMSUQ="}, "use_cudnn_on_gpu": {"b": true}, "leakyrelu_alpha": {"f": 0.2}, "epsilon": {"f": 0.0}, "T": {"type": "DT_FLOAT"}, "explicit_paddings": {"list": {}}, "dilations": {"list": {"i": ["1", "1", "1", "1"]}}}}, {"name": "PartitionedCall/model_81/tf.math.multiply_1019/Mul", "op": "Mul", "input": ["PartitionedCall/model_81/tf.math.add_329/Add", "PartitionedCall/model_81/tf.math.sigmoid_230/Sigmoid"], "attr": {"T": {"type": "DT_FLOAT"}}}, {"name": "PartitionedCall/model_81/tf.math.multiply_1023/Mul", "op": "Mul", "input": ["PartitionedCall/model_81/tf.math.add_330/Add", "PartitionedCall/model_81/tf.math.sigmoid_231/Sigmoid"], "attr": {"T": {"type": "DT_FLOAT"}}}, {"name": "PartitionedCall/model_81/tf.math.sigmoid_229/Sigmoid", "op": "Sigmoid", "input": ["PartitionedCall/model_81/tf.math.add_328/Add"], "attr": {"T": {"type": "DT_FLOAT"}}}, {"name": "PartitionedCall/model_81/tf.math.add_331/Add", "op": "_FusedConv2D", "input": ["PartitionedCall/model_81/tf.math.multiply_1019/Mul", "unknown_113", "unknown_119"], "device": "/device:CPU:0", "attr": {"num_host_args": {"i": "0"}, "data_format": {"s": "TkhXQw=="}, "filter_format": {"s": "SFdJTw=="}, "strides": {"list": {"i": ["1", "1", "1", "1"]}}, "num_args": {"i": "1"}, "fused_ops": {"list": {"s": ["Qmlhc0FkZA=="]}}, "TArgs": {"list": {"type": ["DT_FLOAT"]}}, "padding": {"s": "U0FNRQ=="}, "use_cudnn_on_gpu": {"b": true}, "leakyrelu_alpha": {"f": 0.2}, "epsilon": {"f": 0.0}, "T": {"type": "DT_FLOAT"}, "explicit_paddings": {"list": {}}, "dilations": {"list": {"i": ["1", "1", "1", "1"]}}}}, {"name": "PartitionedCall/model_81/tf.math.add_332/Add", "op": "_FusedConv2D", "input": ["PartitionedCall/model_81/tf.math.multiply_1023/Mul", "unknown_112", "unknown_118"], "device": "/device:CPU:0", "attr": {"num_host_args": {"i": "0"}, "data_format": {"s": "TkhXQw=="}, "filter_format": {"s": "SFdJTw=="}, "strides": {"list": {"i": ["1", "1", "1", "1"]}}, "num_args": {"i": "1"}, "fused_ops": {"list": {"s": ["Qmlhc0FkZA=="]}}, "TArgs": {"list": {"type": ["DT_FLOAT"]}}, "padding": {"s": "U0FNRQ=="}, "use_cudnn_on_gpu": {"b": true}, "leakyrelu_alpha": {"f": 0.2}, "epsilon": {"f": 0.0}, "T": {"type": "DT_FLOAT"}, "explicit_paddings": {"list": {}}, "dilations": {"list": {"i": ["1", "1", "1", "1"]}}}}, {"name": "PartitionedCall/model_81/tf.math.multiply_1015/Mul", "op": "Mul", "input": ["PartitionedCall/model_81/tf.math.add_328/Add", "PartitionedCall/model_81/tf.math.sigmoid_229/Sigmoid"], "attr": {"T": {"type": "DT_FLOAT"}}}, {"name": "PartitionedCall/model_81/tf.math.sigmoid_232/Sigmoid", "op": "Sigmoid", "input": ["PartitionedCall/model_81/tf.math.add_331/Add"], "attr": {"T": {"type": "DT_FLOAT"}}}, {"name": "PartitionedCall/model_81/tf.math.sigmoid_233/Sigmoid", "op": "Sigmoid", "input": ["PartitionedCall/model_81/tf.math.add_332/Add"], "attr": {"T": {"type": "DT_FLOAT"}}}, {"name": "PartitionedCall/model_81/tf.concat_75/concat", "op": "ConcatV2", "input": ["PartitionedCall/model_81/tf.math.multiply_1015/Mul", "PartitionedCall/model_81/tf.math.multiply_995/Mul", "PartitionedCall/model_81/tf.concat_75/concat/axis"], "attr": {"N": {"i": "2"}, "T": {"type": "DT_FLOAT"}, "Tidx": {"type": "DT_INT32"}}}, {"name": "PartitionedCall/model_81/tf.math.multiply_1027/Mul", "op": "Mul", "input": ["PartitionedCall/model_81/tf.math.add_331/Add", "PartitionedCall/model_81/tf.math.sigmoid_232/Sigmoid"], "attr": {"T": {"type": "DT_FLOAT"}}}, {"name": "PartitionedCall/model_81/tf.math.multiply_1031/Mul", "op": "Mul", "input": ["PartitionedCall/model_81/tf.math.add_332/Add", "PartitionedCall/model_81/tf.math.sigmoid_233/Sigmoid"], "attr": {"T": {"type": "DT_FLOAT"}}}, {"name": "PartitionedCall/model_81/tf.math.add_333/Add", "op": "_FusedConv2D", "input": ["PartitionedCall/model_81/tf.concat_75/concat", "unknown_77", "unknown_78"], "device": "/device:CPU:0", "attr": {"num_host_args": {"i": "0"}, "data_format": {"s": "TkhXQw=="}, "filter_format": {"s": "SFdJTw=="}, "fused_ops": {"list": {"s": ["Qmlhc0FkZA=="]}}, "num_args": {"i": "1"}, "strides": {"list": {"i": ["1", "1", "1", "1"]}}, "TArgs": {"list": {"type": ["DT_FLOAT"]}}, "padding": {"s": "U0FNRQ=="}, "use_cudnn_on_gpu": {"b": true}, "leakyrelu_alpha": {"f": 0.2}, "epsilon": {"f": 0.0}, "T": {"type": "DT_FLOAT"}, "explicit_paddings": {"list": {}}, "dilations": {"list": {"i": ["1", "1", "1", "1"]}}}}, {"name": "PartitionedCall/model_81/tf.math.add_334/Add", "op": "_FusedConv2D", "input": ["PartitionedCall/model_81/tf.math.multiply_1027/Mul", "unknown_125", "unknown_130"], "device": "/device:CPU:0", "attr": {"num_host_args": {"i": "0"}, "data_format": {"s": "TkhXQw=="}, "filter_format": {"s": "SFdJTw=="}, "strides": {"list": {"i": ["1", "1", "1", "1"]}}, "num_args": {"i": "1"}, "fused_ops": {"list": {"s": ["Qmlhc0FkZA=="]}}, "TArgs": {"list": {"type": ["DT_FLOAT"]}}, "padding": {"s": "U0FNRQ=="}, "use_cudnn_on_gpu": {"b": true}, "leakyrelu_alpha": {"f": 0.2}, "epsilon": {"f": 0.0}, "T": {"type": "DT_FLOAT"}, "explicit_paddings": {"list": {}}, "dilations": {"list": {"i": ["1", "1", "1", "1"]}}}}, {"name": "PartitionedCall/model_81/tf.math.add_335/Add", "op": "_FusedConv2D", "input": ["PartitionedCall/model_81/tf.math.multiply_1031/Mul", "unknown_124", "unknown_131"], "device": "/device:CPU:0", "attr": {"num_host_args": {"i": "0"}, "data_format": {"s": "TkhXQw=="}, "filter_format": {"s": "SFdJTw=="}, "fused_ops": {"list": {"s": ["Qmlhc0FkZA=="]}}, "num_args": {"i": "1"}, "strides": {"list": {"i": ["1", "1", "1", "1"]}}, "TArgs": {"list": {"type": ["DT_FLOAT"]}}, "padding": {"s": "U0FNRQ=="}, "use_cudnn_on_gpu": {"b": true}, "leakyrelu_alpha": {"f": 0.2}, "epsilon": {"f": 0.0}, "T": {"type": "DT_FLOAT"}, "explicit_paddings": {"list": {}}, "dilations": {"list": {"i": ["1", "1", "1", "1"]}}}}, {"name": "PartitionedCall/model_81/tf.math.sigmoid_234/Sigmoid", "op": "Sigmoid", "input": ["PartitionedCall/model_81/tf.math.add_333/Add"], "attr": {"T": {"type": "DT_FLOAT"}}}, {"name": "PartitionedCall/model_81/tf.concat_76/concat", "op": "ConcatV2", "input": ["PartitionedCall/model_81/tf.math.add_334/Add", "PartitionedCall/model_81/tf.math.add_335/Add", "PartitionedCall/model_81/tf.concat_76/concat/axis"], "attr": {"N": {"i": "2"}, "Tidx": {"type": "DT_INT32"}, "T": {"type": "DT_FLOAT"}}}, {"name": "PartitionedCall/model_81/tf.math.multiply_1035/Mul", "op": "Mul", "input": ["PartitionedCall/model_81/tf.math.add_333/Add", "PartitionedCall/model_81/tf.math.sigmoid_234/Sigmoid"], "attr": {"T": {"type": "DT_FLOAT"}}}, {"name": "PartitionedCall/model_81/tf.compat.v1.transpose_383/transpose", "op": "Transpose", "input": ["PartitionedCall/model_81/tf.concat_76/concat", "PartitionedCall/model_81/tf.compat.v1.transpose_383/transpose/perm"], "attr": {"Tperm": {"type": "DT_INT32"}, "T": {"type": "DT_FLOAT"}}}, {"name": "PartitionedCall/model_81/tf.strided_slice_77/StridedSlice", "op": "StridedSlice", "input": ["PartitionedCall/model_81/tf.math.multiply_1035/Mul", "PartitionedCall/model_81/tf.strided_slice_77/StridedSlice/begin", "PartitionedCall/model_81/tf.strided_slice_77/StridedSlice/end", "PartitionedCall/model_81/tf.strided_slice_77/ones_like"], "attr": {"shrink_axis_mask": {"i": "0"}, "Index": {"type": "DT_INT32"}, "new_axis_mask": {"i": "0"}, "begin_mask": {"i": "7"}, "end_mask": {"i": "7"}, "T": {"type": "DT_FLOAT"}, "ellipsis_mask": {"i": "0"}}}, {"name": "PartitionedCall/model_81/tf.strided_slice_78/StridedSlice", "op": "StridedSlice", "input": ["PartitionedCall/model_81/tf.math.multiply_1035/Mul", "PartitionedCall/model_81/tf.strided_slice_78/StridedSlice/begin", "PartitionedCall/model_81/tf.strided_slice_78/StridedSlice/end", "PartitionedCall/model_81/tf.strided_slice_78/ones_like"], "attr": {"shrink_axis_mask": {"i": "0"}, "new_axis_mask": {"i": "0"}, "Index": {"type": "DT_INT32"}, "begin_mask": {"i": "7"}, "end_mask": {"i": "7"}, "T": {"type": "DT_FLOAT"}, "ellipsis_mask": {"i": "0"}}}, {"name": "PartitionedCall/model_81/tf.reshape_56/Reshape", "op": "Reshape", "input": ["PartitionedCall/model_81/tf.compat.v1.transpose_383/transpose", "PartitionedCall/model_81/tf.reshape_56/Reshape/shape"], "attr": {"T": {"type": "DT_FLOAT"}, "Tshape": {"type": "DT_INT32"}}}, {"name": "PartitionedCall/model_81/tf.math.add_336/Add", "op": "_FusedConv2D", "input": ["PartitionedCall/model_81/tf.strided_slice_78/StridedSlice", "unknown_79", "unknown_80"], "device": "/device:CPU:0", "attr": {"num_host_args": {"i": "0"}, "data_format": {"s": "TkhXQw=="}, "filter_format": {"s": "SFdJTw=="}, "strides": {"list": {"i": ["1", "1", "1", "1"]}}, "num_args": {"i": "1"}, "fused_ops": {"list": {"s": ["Qmlhc0FkZA=="]}}, "TArgs": {"list": {"type": ["DT_FLOAT"]}}, "padding": {"s": "U0FNRQ=="}, "use_cudnn_on_gpu": {"b": true}, "leakyrelu_alpha": {"f": 0.2}, "epsilon": {"f": 0.0}, "T": {"type": "DT_FLOAT"}, "explicit_paddings": {"list": {}}, "dilations": {"list": {"i": ["1", "1", "1", "1"]}}}}, {"name": "PartitionedCall/model_81/tf.math.sigmoid_235/Sigmoid", "op": "Sigmoid", "input": ["PartitionedCall/model_81/tf.math.add_336/Add"], "attr": {"T": {"type": "DT_FLOAT"}}}, {"name": "PartitionedCall/model_81/tf.math.multiply_1039/Mul", "op": "Mul", "input": ["PartitionedCall/model_81/tf.math.add_336/Add", "PartitionedCall/model_81/tf.math.sigmoid_235/Sigmoid"], "attr": {"T": {"type": "DT_FLOAT"}}}, {"name": "PartitionedCall/model_81/tf.math.add_337/Add", "op": "_FusedConv2D", "input": ["PartitionedCall/model_81/tf.math.multiply_1039/Mul", "unknown_81", "unknown_82"], "device": "/device:CPU:0", "attr": {"num_host_args": {"i": "0"}, "data_format": {"s": "TkhXQw=="}, "filter_format": {"s": "SFdJTw=="}, "fused_ops": {"list": {"s": ["Qmlhc0FkZA=="]}}, "num_args": {"i": "1"}, "strides": {"list": {"i": ["1", "1", "1", "1"]}}, "TArgs": {"list": {"type": ["DT_FLOAT"]}}, "padding": {"s": "U0FNRQ=="}, "use_cudnn_on_gpu": {"b": true}, "leakyrelu_alpha": {"f": 0.2}, "epsilon": {"f": 0.0}, "T": {"type": "DT_FLOAT"}, "explicit_paddings": {"list": {}}, "dilations": {"list": {"i": ["1", "1", "1", "1"]}}}}, {"name": "PartitionedCall/model_81/tf.math.sigmoid_236/Sigmoid", "op": "Sigmoid", "input": ["PartitionedCall/model_81/tf.math.add_337/Add"], "attr": {"T": {"type": "DT_FLOAT"}}}, {"name": "PartitionedCall/model_81/tf.math.multiply_1043/Mul", "op": "Mul", "input": ["PartitionedCall/model_81/tf.math.add_337/Add", "PartitionedCall/model_81/tf.math.sigmoid_236/Sigmoid"], "attr": {"T": {"type": "DT_FLOAT"}}}, {"name": "PartitionedCall/model_81/tf.concat_77/concat", "op": "ConcatV2", "input": ["PartitionedCall/model_81/tf.strided_slice_77/StridedSlice", "PartitionedCall/model_81/tf.strided_slice_78/StridedSlice", "PartitionedCall/model_81/tf.math.multiply_1043/Mul", "PartitionedCall/model_81/tf.concat_77/concat/axis"], "attr": {"N": {"i": "3"}, "T": {"type": "DT_FLOAT"}, "Tidx": {"type": "DT_INT32"}}}, {"name": "PartitionedCall/model_81/tf.math.add_338/Add", "op": "_FusedConv2D", "input": ["PartitionedCall/model_81/tf.concat_77/concat", "unknown_83", "unknown_84"], "device": "/device:CPU:0", "attr": {"num_host_args": {"i": "0"}, "data_format": {"s": "TkhXQw=="}, "filter_format": {"s": "SFdJTw=="}, "strides": {"list": {"i": ["1", "1", "1", "1"]}}, "num_args": {"i": "1"}, "fused_ops": {"list": {"s": ["Qmlhc0FkZA=="]}}, "TArgs": {"list": {"type": ["DT_FLOAT"]}}, "padding": {"s": "U0FNRQ=="}, "use_cudnn_on_gpu": {"b": true}, "leakyrelu_alpha": {"f": 0.2}, "epsilon": {"f": 0.0}, "T": {"type": "DT_FLOAT"}, "explicit_paddings": {"list": {}}, "dilations": {"list": {"i": ["1", "1", "1", "1"]}}}}, {"name": "PartitionedCall/model_81/tf.math.sigmoid_237/Sigmoid", "op": "Sigmoid", "input": ["PartitionedCall/model_81/tf.math.add_338/Add"], "attr": {"T": {"type": "DT_FLOAT"}}}, {"name": "PartitionedCall/model_81/tf.math.multiply_1047/Mul", "op": "Mul", "input": ["PartitionedCall/model_81/tf.math.add_338/Add", "PartitionedCall/model_81/tf.math.sigmoid_237/Sigmoid"], "attr": {"T": {"type": "DT_FLOAT"}}}, {"name": "PartitionedCall/model_81/tf.math.add_340/Add", "op": "_FusedConv2D", "input": ["PartitionedCall/model_81/tf.math.multiply_1047/Mul", "unknown_99", "unknown_105"], "device": "/device:CPU:0", "attr": {"num_host_args": {"i": "0"}, "data_format": {"s": "TkhXQw=="}, "filter_format": {"s": "SFdJTw=="}, "fused_ops": {"list": {"s": ["Qmlhc0FkZA=="]}}, "num_args": {"i": "1"}, "strides": {"list": {"i": ["1", "1", "1", "1"]}}, "TArgs": {"list": {"type": ["DT_FLOAT"]}}, "padding": {"s": "U0FNRQ=="}, "use_cudnn_on_gpu": {"b": true}, "leakyrelu_alpha": {"f": 0.2}, "epsilon": {"f": 0.0}, "T": {"type": "DT_FLOAT"}, "explicit_paddings": {"list": {}}, "dilations": {"list": {"i": ["1", "1", "1", "1"]}}}}, {"name": "PartitionedCall/model_81/tf.math.add_341/Add", "op": "_FusedConv2D", "input": ["PartitionedCall/model_81/tf.math.multiply_1047/Mul", "unknown_98", "unknown_104"], "device": "/device:CPU:0", "attr": {"num_host_args": {"i": "0"}, "data_format": {"s": "TkhXQw=="}, "filter_format": {"s": "SFdJTw=="}, "strides": {"list": {"i": ["1", "1", "1", "1"]}}, "num_args": {"i": "1"}, "fused_ops": {"list": {"s": ["Qmlhc0FkZA=="]}}, "TArgs": {"list": {"type": ["DT_FLOAT"]}}, "padding": {"s": "U0FNRQ=="}, "use_cudnn_on_gpu": {"b": true}, "leakyrelu_alpha": {"f": 0.2}, "epsilon": {"f": 0.0}, "T": {"type": "DT_FLOAT"}, "explicit_paddings": {"list": {}}, "dilations": {"list": {"i": ["1", "1", "1", "1"]}}}}, {"name": "PartitionedCall/model_81/tf.compat.v1.pad_27/Pad", "op": "Pad", "input": ["PartitionedCall/model_81/tf.math.multiply_1047/Mul", "unknown_85"], "attr": {"Tpaddings": {"type": "DT_INT32"}, "T": {"type": "DT_FLOAT"}}}, {"name": "PartitionedCall/model_81/tf.math.sigmoid_239/Sigmoid", "op": "Sigmoid", "input": ["PartitionedCall/model_81/tf.math.add_340/Add"], "attr": {"T": {"type": "DT_FLOAT"}}}, {"name": "PartitionedCall/model_81/tf.math.sigmoid_240/Sigmoid", "op": "Sigmoid", "input": ["PartitionedCall/model_81/tf.math.add_341/Add"], "attr": {"T": {"type": "DT_FLOAT"}}}, {"name": "PartitionedCall/model_81/tf.math.add_339/Add", "op": "_FusedConv2D", "input": ["PartitionedCall/model_81/tf.compat.v1.pad_27/Pad", "unknown_86", "unknown_87"], "device": "/device:CPU:0", "attr": {"num_host_args": {"i": "0"}, "data_format": {"s": "TkhXQw=="}, "filter_format": {"s": "SFdJTw=="}, "strides": {"list": {"i": ["1", "2", "2", "1"]}}, "num_args": {"i": "1"}, "fused_ops": {"list": {"s": ["Qmlhc0FkZA=="]}}, "TArgs": {"list": {"type": ["DT_FLOAT"]}}, "padding": {"s": "VkFMSUQ="}, "use_cudnn_on_gpu": {"b": true}, "leakyrelu_alpha": {"f": 0.2}, "epsilon": {"f": 0.0}, "T": {"type": "DT_FLOAT"}, "explicit_paddings": {"list": {}}, "dilations": {"list": {"i": ["1", "1", "1", "1"]}}}}, {"name": "PartitionedCall/model_81/tf.math.multiply_1055/Mul", "op": "Mul", "input": ["PartitionedCall/model_81/tf.math.add_340/Add", "PartitionedCall/model_81/tf.math.sigmoid_239/Sigmoid"], "attr": {"T": {"type": "DT_FLOAT"}}}, {"name": "PartitionedCall/model_81/tf.math.multiply_1059/Mul", "op": "Mul", "input": ["PartitionedCall/model_81/tf.math.add_341/Add", "PartitionedCall/model_81/tf.math.sigmoid_240/Sigmoid"], "attr": {"T": {"type": "DT_FLOAT"}}}, {"name": "PartitionedCall/model_81/tf.math.sigmoid_238/Sigmoid", "op": "Sigmoid", "input": ["PartitionedCall/model_81/tf.math.add_339/Add"], "attr": {"T": {"type": "DT_FLOAT"}}}, {"name": "PartitionedCall/model_81/tf.math.add_342/Add", "op": "_FusedConv2D", "input": ["PartitionedCall/model_81/tf.math.multiply_1055/Mul", "unknown_111", "unknown_117"], "device": "/device:CPU:0", "attr": {"num_host_args": {"i": "0"}, "data_format": {"s": "TkhXQw=="}, "filter_format": {"s": "SFdJTw=="}, "strides": {"list": {"i": ["1", "1", "1", "1"]}}, "num_args": {"i": "1"}, "fused_ops": {"list": {"s": ["Qmlhc0FkZA=="]}}, "TArgs": {"list": {"type": ["DT_FLOAT"]}}, "padding": {"s": "U0FNRQ=="}, "use_cudnn_on_gpu": {"b": true}, "leakyrelu_alpha": {"f": 0.2}, "epsilon": {"f": 0.0}, "T": {"type": "DT_FLOAT"}, "explicit_paddings": {"list": {}}, "dilations": {"list": {"i": ["1", "1", "1", "1"]}}}}, {"name": "PartitionedCall/model_81/tf.math.add_343/Add", "op": "_FusedConv2D", "input": ["PartitionedCall/model_81/tf.math.multiply_1059/Mul", "unknown_110", "unknown_116"], "device": "/device:CPU:0", "attr": {"num_host_args": {"i": "0"}, "data_format": {"s": "TkhXQw=="}, "filter_format": {"s": "SFdJTw=="}, "strides": {"list": {"i": ["1", "1", "1", "1"]}}, "num_args": {"i": "1"}, "fused_ops": {"list": {"s": ["Qmlhc0FkZA=="]}}, "TArgs": {"list": {"type": ["DT_FLOAT"]}}, "padding": {"s": "U0FNRQ=="}, "use_cudnn_on_gpu": {"b": true}, "leakyrelu_alpha": {"f": 0.2}, "epsilon": {"f": 0.0}, "T": {"type": "DT_FLOAT"}, "explicit_paddings": {"list": {}}, "dilations": {"list": {"i": ["1", "1", "1", "1"]}}}}, {"name": "PartitionedCall/model_81/tf.math.multiply_1051/Mul", "op": "Mul", "input": ["PartitionedCall/model_81/tf.math.add_339/Add", "PartitionedCall/model_81/tf.math.sigmoid_238/Sigmoid"], "attr": {"T": {"type": "DT_FLOAT"}}}, {"name": "PartitionedCall/model_81/tf.math.sigmoid_241/Sigmoid", "op": "Sigmoid", "input": ["PartitionedCall/model_81/tf.math.add_342/Add"], "attr": {"T": {"type": "DT_FLOAT"}}}, {"name": "PartitionedCall/model_81/tf.math.sigmoid_242/Sigmoid", "op": "Sigmoid", "input": ["PartitionedCall/model_81/tf.math.add_343/Add"], "attr": {"T": {"type": "DT_FLOAT"}}}, {"name": "PartitionedCall/model_81/tf.concat_78/concat", "op": "ConcatV2", "input": ["PartitionedCall/model_81/tf.math.multiply_1051/Mul", "PartitionedCall/model_81/tf.math.multiply_979/Mul", "PartitionedCall/model_81/tf.concat_78/concat/axis"], "attr": {"N": {"i": "2"}, "Tidx": {"type": "DT_INT32"}, "T": {"type": "DT_FLOAT"}}}, {"name": "PartitionedCall/model_81/tf.math.multiply_1063/Mul", "op": "Mul", "input": ["PartitionedCall/model_81/tf.math.add_342/Add", "PartitionedCall/model_81/tf.math.sigmoid_241/Sigmoid"], "attr": {"T": {"type": "DT_FLOAT"}}}, {"name": "PartitionedCall/model_81/tf.math.multiply_1067/Mul", "op": "Mul", "input": ["PartitionedCall/model_81/tf.math.add_343/Add", "PartitionedCall/model_81/tf.math.sigmoid_242/Sigmoid"], "attr": {"T": {"type": "DT_FLOAT"}}}, {"name": "PartitionedCall/model_81/tf.math.add_344/Add", "op": "_FusedConv2D", "input": ["PartitionedCall/model_81/tf.concat_78/concat", "unknown_88", "unknown_89"], "device": "/device:CPU:0", "attr": {"num_host_args": {"i": "0"}, "data_format": {"s": "TkhXQw=="}, "filter_format": {"s": "SFdJTw=="}, "fused_ops": {"list": {"s": ["Qmlhc0FkZA=="]}}, "num_args": {"i": "1"}, "strides": {"list": {"i": ["1", "1", "1", "1"]}}, "TArgs": {"list": {"type": ["DT_FLOAT"]}}, "padding": {"s": "U0FNRQ=="}, "use_cudnn_on_gpu": {"b": true}, "leakyrelu_alpha": {"f": 0.2}, "epsilon": {"f": 0.0}, "T": {"type": "DT_FLOAT"}, "explicit_paddings": {"list": {}}, "dilations": {"list": {"i": ["1", "1", "1", "1"]}}}}, {"name": "PartitionedCall/model_81/tf.math.add_345/Add", "op": "_FusedConv2D", "input": ["PartitionedCall/model_81/tf.math.multiply_1063/Mul", "unknown_123", "unknown_128"], "device": "/device:CPU:0", "attr": {"num_host_args": {"i": "0"}, "data_format": {"s": "TkhXQw=="}, "filter_format": {"s": "SFdJTw=="}, "fused_ops": {"list": {"s": ["Qmlhc0FkZA=="]}}, "num_args": {"i": "1"}, "strides": {"list": {"i": ["1", "1", "1", "1"]}}, "TArgs": {"list": {"type": ["DT_FLOAT"]}}, "padding": {"s": "U0FNRQ=="}, "use_cudnn_on_gpu": {"b": true}, "leakyrelu_alpha": {"f": 0.2}, "epsilon": {"f": 0.0}, "T": {"type": "DT_FLOAT"}, "explicit_paddings": {"list": {}}, "dilations": {"list": {"i": ["1", "1", "1", "1"]}}}}, {"name": "PartitionedCall/model_81/tf.math.add_346/Add", "op": "_FusedConv2D", "input": ["PartitionedCall/model_81/tf.math.multiply_1067/Mul", "unknown_122", "unknown_129"], "device": "/device:CPU:0", "attr": {"num_host_args": {"i": "0"}, "data_format": {"s": "TkhXQw=="}, "filter_format": {"s": "SFdJTw=="}, "strides": {"list": {"i": ["1", "1", "1", "1"]}}, "num_args": {"i": "1"}, "fused_ops": {"list": {"s": ["Qmlhc0FkZA=="]}}, "TArgs": {"list": {"type": ["DT_FLOAT"]}}, "padding": {"s": "U0FNRQ=="}, "use_cudnn_on_gpu": {"b": true}, "leakyrelu_alpha": {"f": 0.2}, "epsilon": {"f": 0.0}, "T": {"type": "DT_FLOAT"}, "explicit_paddings": {"list": {}}, "dilations": {"list": {"i": ["1", "1", "1", "1"]}}}}, {"name": "PartitionedCall/model_81/tf.math.sigmoid_243/Sigmoid", "op": "Sigmoid", "input": ["PartitionedCall/model_81/tf.math.add_344/Add"], "attr": {"T": {"type": "DT_FLOAT"}}}, {"name": "PartitionedCall/model_81/tf.concat_79/concat", "op": "ConcatV2", "input": ["PartitionedCall/model_81/tf.math.add_345/Add", "PartitionedCall/model_81/tf.math.add_346/Add", "PartitionedCall/model_81/tf.concat_79/concat/axis"], "attr": {"N": {"i": "2"}, "Tidx": {"type": "DT_INT32"}, "T": {"type": "DT_FLOAT"}}}, {"name": "PartitionedCall/model_81/tf.math.multiply_1071/Mul", "op": "Mul", "input": ["PartitionedCall/model_81/tf.math.add_344/Add", "PartitionedCall/model_81/tf.math.sigmoid_243/Sigmoid"], "attr": {"T": {"type": "DT_FLOAT"}}}, {"name": "PartitionedCall/model_81/tf.compat.v1.transpose_397/transpose", "op": "Transpose", "input": ["PartitionedCall/model_81/tf.concat_79/concat", "PartitionedCall/model_81/tf.compat.v1.transpose_397/transpose/perm"], "attr": {"Tperm": {"type": "DT_INT32"}, "T": {"type": "DT_FLOAT"}}}, {"name": "PartitionedCall/model_81/tf.strided_slice_79/StridedSlice", "op": "StridedSlice", "input": ["PartitionedCall/model_81/tf.math.multiply_1071/Mul", "PartitionedCall/model_81/tf.strided_slice_79/StridedSlice/begin", "PartitionedCall/model_81/tf.strided_slice_79/StridedSlice/end", "PartitionedCall/model_81/tf.strided_slice_79/ones_like"], "attr": {"shrink_axis_mask": {"i": "0"}, "Index": {"type": "DT_INT32"}, "new_axis_mask": {"i": "0"}, "begin_mask": {"i": "7"}, "end_mask": {"i": "7"}, "T": {"type": "DT_FLOAT"}, "ellipsis_mask": {"i": "0"}}}, {"name": "PartitionedCall/model_81/tf.strided_slice_80/StridedSlice", "op": "StridedSlice", "input": ["PartitionedCall/model_81/tf.math.multiply_1071/Mul", "PartitionedCall/model_81/tf.strided_slice_80/StridedSlice/begin", "PartitionedCall/model_81/tf.strided_slice_80/StridedSlice/end", "PartitionedCall/model_81/tf.strided_slice_80/ones_like"], "attr": {"shrink_axis_mask": {"i": "0"}, "new_axis_mask": {"i": "0"}, "Index": {"type": "DT_INT32"}, "begin_mask": {"i": "7"}, "T": {"type": "DT_FLOAT"}, "end_mask": {"i": "7"}, "ellipsis_mask": {"i": "0"}}}, {"name": "PartitionedCall/model_81/tf.reshape_59/Reshape", "op": "Reshape", "input": ["PartitionedCall/model_81/tf.compat.v1.transpose_397/transpose", "PartitionedCall/model_81/tf.reshape_59/Reshape/shape"], "attr": {"T": {"type": "DT_FLOAT"}, "Tshape": {"type": "DT_INT32"}}}, {"name": "PartitionedCall/model_81/tf.math.add_347/Add", "op": "_FusedConv2D", "input": ["PartitionedCall/model_81/tf.strided_slice_80/StridedSlice", "unknown_90", "unknown_91"], "device": "/device:CPU:0", "attr": {"num_host_args": {"i": "0"}, "data_format": {"s": "TkhXQw=="}, "filter_format": {"s": "SFdJTw=="}, "strides": {"list": {"i": ["1", "1", "1", "1"]}}, "num_args": {"i": "1"}, "fused_ops": {"list": {"s": ["Qmlhc0FkZA=="]}}, "TArgs": {"list": {"type": ["DT_FLOAT"]}}, "padding": {"s": "U0FNRQ=="}, "use_cudnn_on_gpu": {"b": true}, "leakyrelu_alpha": {"f": 0.2}, "epsilon": {"f": 0.0}, "T": {"type": "DT_FLOAT"}, "explicit_paddings": {"list": {}}, "dilations": {"list": {"i": ["1", "1", "1", "1"]}}}}, {"name": "PartitionedCall/model_81/tf.math.sigmoid_244/Sigmoid", "op": "Sigmoid", "input": ["PartitionedCall/model_81/tf.math.add_347/Add"], "attr": {"T": {"type": "DT_FLOAT"}}}, {"name": "PartitionedCall/model_81/tf.math.multiply_1075/Mul", "op": "Mul", "input": ["PartitionedCall/model_81/tf.math.add_347/Add", "PartitionedCall/model_81/tf.math.sigmoid_244/Sigmoid"], "attr": {"T": {"type": "DT_FLOAT"}}}, {"name": "PartitionedCall/model_81/tf.math.add_348/Add", "op": "_FusedConv2D", "input": ["PartitionedCall/model_81/tf.math.multiply_1075/Mul", "unknown_92", "unknown_93"], "device": "/device:CPU:0", "attr": {"num_host_args": {"i": "0"}, "data_format": {"s": "TkhXQw=="}, "filter_format": {"s": "SFdJTw=="}, "fused_ops": {"list": {"s": ["Qmlhc0FkZA=="]}}, "num_args": {"i": "1"}, "strides": {"list": {"i": ["1", "1", "1", "1"]}}, "TArgs": {"list": {"type": ["DT_FLOAT"]}}, "padding": {"s": "U0FNRQ=="}, "use_cudnn_on_gpu": {"b": true}, "leakyrelu_alpha": {"f": 0.2}, "epsilon": {"f": 0.0}, "T": {"type": "DT_FLOAT"}, "explicit_paddings": {"list": {}}, "dilations": {"list": {"i": ["1", "1", "1", "1"]}}}}, {"name": "PartitionedCall/model_81/tf.math.sigmoid_245/Sigmoid", "op": "Sigmoid", "input": ["PartitionedCall/model_81/tf.math.add_348/Add"], "attr": {"T": {"type": "DT_FLOAT"}}}, {"name": "PartitionedCall/model_81/tf.math.multiply_1079/Mul", "op": "Mul", "input": ["PartitionedCall/model_81/tf.math.add_348/Add", "PartitionedCall/model_81/tf.math.sigmoid_245/Sigmoid"], "attr": {"T": {"type": "DT_FLOAT"}}}, {"name": "PartitionedCall/model_81/tf.concat_80/concat", "op": "ConcatV2", "input": ["PartitionedCall/model_81/tf.strided_slice_79/StridedSlice", "PartitionedCall/model_81/tf.strided_slice_80/StridedSlice", "PartitionedCall/model_81/tf.math.multiply_1079/Mul", "PartitionedCall/model_81/tf.concat_80/concat/axis"], "attr": {"N": {"i": "3"}, "Tidx": {"type": "DT_INT32"}, "T": {"type": "DT_FLOAT"}}}, {"name": "PartitionedCall/model_81/tf.math.add_349/Add", "op": "_FusedConv2D", "input": ["PartitionedCall/model_81/tf.concat_80/concat", "unknown_94", "unknown_95"], "device": "/device:CPU:0", "attr": {"num_host_args": {"i": "0"}, "data_format": {"s": "TkhXQw=="}, "filter_format": {"s": "SFdJTw=="}, "fused_ops": {"list": {"s": ["Qmlhc0FkZA=="]}}, "num_args": {"i": "1"}, "strides": {"list": {"i": ["1", "1", "1", "1"]}}, "TArgs": {"list": {"type": ["DT_FLOAT"]}}, "padding": {"s": "U0FNRQ=="}, "use_cudnn_on_gpu": {"b": true}, "leakyrelu_alpha": {"f": 0.2}, "epsilon": {"f": 0.0}, "T": {"type": "DT_FLOAT"}, "explicit_paddings": {"list": {}}, "dilations": {"list": {"i": ["1", "1", "1", "1"]}}}}, {"name": "PartitionedCall/model_81/tf.math.sigmoid_246/Sigmoid", "op": "Sigmoid", "input": ["PartitionedCall/model_81/tf.math.add_349/Add"], "attr": {"T": {"type": "DT_FLOAT"}}}, {"name": "PartitionedCall/model_81/tf.math.multiply_1083/Mul", "op": "Mul", "input": ["PartitionedCall/model_81/tf.math.add_349/Add", "PartitionedCall/model_81/tf.math.sigmoid_246/Sigmoid"], "attr": {"T": {"type": "DT_FLOAT"}}}, {"name": "PartitionedCall/model_81/tf.math.add_350/Add", "op": "_FusedConv2D", "input": ["PartitionedCall/model_81/tf.math.multiply_1083/Mul", "unknown_97", "unknown_103"], "device": "/device:CPU:0", "attr": {"num_host_args": {"i": "0"}, "data_format": {"s": "TkhXQw=="}, "filter_format": {"s": "SFdJTw=="}, "fused_ops": {"list": {"s": ["Qmlhc0FkZA=="]}}, "num_args": {"i": "1"}, "strides": {"list": {"i": ["1", "1", "1", "1"]}}, "TArgs": {"list": {"type": ["DT_FLOAT"]}}, "padding": {"s": "U0FNRQ=="}, "use_cudnn_on_gpu": {"b": true}, "leakyrelu_alpha": {"f": 0.2}, "epsilon": {"f": 0.0}, "T": {"type": "DT_FLOAT"}, "explicit_paddings": {"list": {}}, "dilations": {"list": {"i": ["1", "1", "1", "1"]}}}}, {"name": "PartitionedCall/model_81/tf.math.add_351/Add", "op": "_FusedConv2D", "input": ["PartitionedCall/model_81/tf.math.multiply_1083/Mul", "unknown_96", "unknown_102"], "device": "/device:CPU:0", "attr": {"num_host_args": {"i": "0"}, "data_format": {"s": "TkhXQw=="}, "filter_format": {"s": "SFdJTw=="}, "strides": {"list": {"i": ["1", "1", "1", "1"]}}, "num_args": {"i": "1"}, "fused_ops": {"list": {"s": ["Qmlhc0FkZA=="]}}, "TArgs": {"list": {"type": ["DT_FLOAT"]}}, "padding": {"s": "U0FNRQ=="}, "use_cudnn_on_gpu": {"b": true}, "leakyrelu_alpha": {"f": 0.2}, "epsilon": {"f": 0.0}, "T": {"type": "DT_FLOAT"}, "explicit_paddings": {"list": {}}, "dilations": {"list": {"i": ["1", "1", "1", "1"]}}}}, {"name": "PartitionedCall/model_81/tf.math.sigmoid_247/Sigmoid", "op": "Sigmoid", "input": ["PartitionedCall/model_81/tf.math.add_350/Add"], "attr": {"T": {"type": "DT_FLOAT"}}}, {"name": "PartitionedCall/model_81/tf.math.sigmoid_248/Sigmoid", "op": "Sigmoid", "input": ["PartitionedCall/model_81/tf.math.add_351/Add"], "attr": {"T": {"type": "DT_FLOAT"}}}, {"name": "PartitionedCall/model_81/tf.math.multiply_1087/Mul", "op": "Mul", "input": ["PartitionedCall/model_81/tf.math.add_350/Add", "PartitionedCall/model_81/tf.math.sigmoid_247/Sigmoid"], "attr": {"T": {"type": "DT_FLOAT"}}}, {"name": "PartitionedCall/model_81/tf.math.multiply_1091/Mul", "op": "Mul", "input": ["PartitionedCall/model_81/tf.math.add_351/Add", "PartitionedCall/model_81/tf.math.sigmoid_248/Sigmoid"], "attr": {"T": {"type": "DT_FLOAT"}}}, {"name": "PartitionedCall/model_81/tf.math.add_352/Add", "op": "_FusedConv2D", "input": ["PartitionedCall/model_81/tf.math.multiply_1087/Mul", "unknown_109", "unknown_115"], "device": "/device:CPU:0", "attr": {"num_host_args": {"i": "0"}, "data_format": {"s": "TkhXQw=="}, "filter_format": {"s": "SFdJTw=="}, "fused_ops": {"list": {"s": ["Qmlhc0FkZA=="]}}, "num_args": {"i": "1"}, "strides": {"list": {"i": ["1", "1", "1", "1"]}}, "TArgs": {"list": {"type": ["DT_FLOAT"]}}, "padding": {"s": "U0FNRQ=="}, "use_cudnn_on_gpu": {"b": true}, "leakyrelu_alpha": {"f": 0.2}, "epsilon": {"f": 0.0}, "T": {"type": "DT_FLOAT"}, "explicit_paddings": {"list": {}}, "dilations": {"list": {"i": ["1", "1", "1", "1"]}}}}, {"name": "PartitionedCall/model_81/tf.math.add_353/Add", "op": "_FusedConv2D", "input": ["PartitionedCall/model_81/tf.math.multiply_1091/Mul", "unknown_108", "unknown_114"], "device": "/device:CPU:0", "attr": {"num_host_args": {"i": "0"}, "data_format": {"s": "TkhXQw=="}, "filter_format": {"s": "SFdJTw=="}, "fused_ops": {"list": {"s": ["Qmlhc0FkZA=="]}}, "num_args": {"i": "1"}, "strides": {"list": {"i": ["1", "1", "1", "1"]}}, "TArgs": {"list": {"type": ["DT_FLOAT"]}}, "padding": {"s": "U0FNRQ=="}, "use_cudnn_on_gpu": {"b": true}, "leakyrelu_alpha": {"f": 0.2}, "epsilon": {"f": 0.0}, "T": {"type": "DT_FLOAT"}, "explicit_paddings": {"list": {}}, "dilations": {"list": {"i": ["1", "1", "1", "1"]}}}}, {"name": "PartitionedCall/model_81/tf.math.sigmoid_249/Sigmoid", "op": "Sigmoid", "input": ["PartitionedCall/model_81/tf.math.add_352/Add"], "attr": {"T": {"type": "DT_FLOAT"}}}, {"name": "PartitionedCall/model_81/tf.math.sigmoid_250/Sigmoid", "op": "Sigmoid", "input": ["PartitionedCall/model_81/tf.math.add_353/Add"], "attr": {"T": {"type": "DT_FLOAT"}}}, {"name": "PartitionedCall/model_81/tf.math.multiply_1095/Mul", "op": "Mul", "input": ["PartitionedCall/model_81/tf.math.add_352/Add", "PartitionedCall/model_81/tf.math.sigmoid_249/Sigmoid"], "attr": {"T": {"type": "DT_FLOAT"}}}, {"name": "PartitionedCall/model_81/tf.math.multiply_1099/Mul", "op": "Mul", "input": ["PartitionedCall/model_81/tf.math.add_353/Add", "PartitionedCall/model_81/tf.math.sigmoid_250/Sigmoid"], "attr": {"T": {"type": "DT_FLOAT"}}}, {"name": "PartitionedCall/model_81/tf.math.add_354/Add", "op": "_FusedConv2D", "input": ["PartitionedCall/model_81/tf.math.multiply_1095/Mul", "unknown_121", "unknown_126"], "device": "/device:CPU:0", "attr": {"num_host_args": {"i": "0"}, "data_format": {"s": "TkhXQw=="}, "filter_format": {"s": "SFdJTw=="}, "fused_ops": {"list": {"s": ["Qmlhc0FkZA=="]}}, "num_args": {"i": "1"}, "strides": {"list": {"i": ["1", "1", "1", "1"]}}, "TArgs": {"list": {"type": ["DT_FLOAT"]}}, "padding": {"s": "U0FNRQ=="}, "use_cudnn_on_gpu": {"b": true}, "leakyrelu_alpha": {"f": 0.2}, "epsilon": {"f": 0.0}, "T": {"type": "DT_FLOAT"}, "explicit_paddings": {"list": {}}, "dilations": {"list": {"i": ["1", "1", "1", "1"]}}}}, {"name": "PartitionedCall/model_81/tf.math.add_355/Add", "op": "_FusedConv2D", "input": ["PartitionedCall/model_81/tf.math.multiply_1099/Mul", "unknown_120", "unknown_127"], "device": "/device:CPU:0", "attr": {"num_host_args": {"i": "0"}, "data_format": {"s": "TkhXQw=="}, "filter_format": {"s": "SFdJTw=="}, "strides": {"list": {"i": ["1", "1", "1", "1"]}}, "num_args": {"i": "1"}, "fused_ops": {"list": {"s": ["Qmlhc0FkZA=="]}}, "TArgs": {"list": {"type": ["DT_FLOAT"]}}, "padding": {"s": "U0FNRQ=="}, "use_cudnn_on_gpu": {"b": true}, "leakyrelu_alpha": {"f": 0.2}, "epsilon": {"f": 0.0}, "T": {"type": "DT_FLOAT"}, "explicit_paddings": {"list": {}}, "dilations": {"list": {"i": ["1", "1", "1", "1"]}}}}, {"name": "PartitionedCall/model_81/tf.concat_81/concat", "op": "ConcatV2", "input": ["PartitionedCall/model_81/tf.math.add_354/Add", "PartitionedCall/model_81/tf.math.add_355/Add", "PartitionedCall/model_81/tf.concat_81/concat/axis"], "attr": {"N": {"i": "2"}, "T": {"type": "DT_FLOAT"}, "Tidx": {"type": "DT_INT32"}}}, {"name": "PartitionedCall/model_81/tf.compat.v1.transpose_409/transpose", "op": "Transpose", "input": ["PartitionedCall/model_81/tf.concat_81/concat", "PartitionedCall/model_81/tf.compat.v1.transpose_409/transpose/perm"], "attr": {"Tperm": {"type": "DT_INT32"}, "T": {"type": "DT_FLOAT"}}}, {"name": "PartitionedCall/model_81/tf.reshape_62/Reshape", "op": "Reshape", "input": ["PartitionedCall/model_81/tf.compat.v1.transpose_409/transpose", "PartitionedCall/model_81/tf.reshape_62/Reshape/shape"], "attr": {"T": {"type": "DT_FLOAT"}, "Tshape": {"type": "DT_INT32"}}}, {"name": "PartitionedCall/model_81/tf.concat_82/concat", "op": "ConcatV2", "input": ["PartitionedCall/model_81/tf.reshape_56/Reshape", "PartitionedCall/model_81/tf.reshape_59/Reshape", "PartitionedCall/model_81/tf.reshape_62/Reshape", "PartitionedCall/model_81/tf.concat_82/concat/axis"], "attr": {"N": {"i": "3"}, "Tidx": {"type": "DT_INT32"}, "T": {"type": "DT_FLOAT"}}}, {"name": "PartitionedCall/model_81/tf.strided_slice_82/StridedSlice", "op": "StridedSlice", "input": ["PartitionedCall/model_81/tf.concat_82/concat", "PartitionedCall/model_81/tf.strided_slice_82/StridedSlice/begin", "PartitionedCall/model_81/tf.strided_slice_82/StridedSlice/end", "PartitionedCall/model_81/tf.strided_slice_82/ones_like"], "attr": {"shrink_axis_mask": {"i": "0"}, "new_axis_mask": {"i": "0"}, "Index": {"type": "DT_INT32"}, "begin_mask": {"i": "5"}, "T": {"type": "DT_FLOAT"}, "end_mask": {"i": "5"}, "ellipsis_mask": {"i": "0"}}}, {"name": "PartitionedCall/model_81/tf.strided_slice_81/StridedSlice", "op": "StridedSlice", "input": ["PartitionedCall/model_81/tf.concat_82/concat", "PartitionedCall/model_81/tf.strided_slice_81/StridedSlice/begin", "PartitionedCall/model_81/tf.strided_slice_81/StridedSlice/end", "PartitionedCall/model_81/tf.strided_slice_81/ones_like"], "attr": {"shrink_axis_mask": {"i": "0"}, "Index": {"type": "DT_INT32"}, "new_axis_mask": {"i": "0"}, "begin_mask": {"i": "5"}, "T": {"type": "DT_FLOAT"}, "end_mask": {"i": "5"}, "ellipsis_mask": {"i": "0"}}}, {"name": "PartitionedCall/model_81/tf.math.sigmoid_251/Sigmoid", "op": "Sigmoid", "input": ["PartitionedCall/model_81/tf.strided_slice_82/StridedSlice"], "attr": {"T": {"type": "DT_FLOAT"}}}, {"name": "PartitionedCall/model_81/tf.reshape_65/Reshape", "op": "Reshape", "input": ["PartitionedCall/model_81/tf.strided_slice_81/StridedSlice", "PartitionedCall/model_81/tf.reshape_65/Reshape/shape"], "attr": {"T": {"type": "DT_FLOAT"}, "Tshape": {"type": "DT_INT32"}}}, {"name": "PartitionedCall/model_81/tf.compat.v1.transpose_416/transpose", "op": "Transpose", "input": ["PartitionedCall/model_81/tf.reshape_65/Reshape", "PartitionedCall/model_81/tf.compat.v1.transpose_416/transpose/perm"], "attr": {"Tperm": {"type": "DT_INT32"}, "T": {"type": "DT_FLOAT"}}}, {"name": "PartitionedCall/model_81/tf.compat.v1.transpose_417/transpose", "op": "Transpose", "input": ["PartitionedCall/model_81/tf.compat.v1.transpose_416/transpose", "PartitionedCall/model_81/tf.compat.v1.transpose_417/transpose/perm"], "attr": {"Tperm": {"type": "DT_INT32"}, "T": {"type": "DT_FLOAT"}}}, {"name": "PartitionedCall/model_81/tf.nn.softmax_5//model.22/dfl/Softmax", "op": "Softmax", "input": ["PartitionedCall/model_81/tf.compat.v1.transpose_417/transpose"], "attr": {"T": {"type": "DT_FLOAT"}}}, {"name": "PartitionedCall/model_81/tf.nn.convolution_281/convolution", "op": "Conv2D", "input": ["PartitionedCall/model_81/tf.nn.softmax_5//model.22/dfl/Softmax", "unknown_132"], "device": "/device:CPU:0", "attr": {"padding": {"s": "U0FNRQ=="}, "data_format": {"s": "TkhXQw=="}, "use_cudnn_on_gpu": {"b": true}, "strides": {"list": {"i": ["1", "1", "1", "1"]}}, "T": {"type": "DT_FLOAT"}, "explicit_paddings": {"list": {}}, "dilations": {"list": {"i": ["1", "1", "1", "1"]}}}}, {"name": "PartitionedCall/model_81/tf.compat.v1.transpose_422/transpose", "op": "Transpose", "input": ["PartitionedCall/model_81/tf.nn.convolution_281/convolution", "PartitionedCall/model_81/tf.compat.v1.transpose_422/transpose/perm"], "attr": {"Tperm": {"type": "DT_INT32"}, "T": {"type": "DT_FLOAT"}}}, {"name": "PartitionedCall/model_81/tf.reshape_68/Reshape", "op": "Reshape", "input": ["PartitionedCall/model_81/tf.compat.v1.transpose_422/transpose", "PartitionedCall/model_81/tf.reshape_68/Reshape/shape"], "attr": {"T": {"type": "DT_FLOAT"}, "Tshape": {"type": "DT_INT32"}}}, {"name": "PartitionedCall/model_81/tf.strided_slice_84/StridedSlice", "op": "StridedSlice", "input": ["PartitionedCall/model_81/tf.reshape_68/Reshape", "unknown_133", "unknown_134", "PartitionedCall/model_81/tf.strided_slice_84/ones_like"], "attr": {"shrink_axis_mask": {"i": "0"}, "new_axis_mask": {"i": "0"}, "Index": {"type": "DT_INT64"}, "begin_mask": {"i": "5"}, "end_mask": {"i": "5"}, "T": {"type": "DT_FLOAT"}, "ellipsis_mask": {"i": "0"}}}, {"name": "PartitionedCall/model_81/tf.strided_slice_83/StridedSlice", "op": "StridedSlice", "input": ["PartitionedCall/model_81/tf.reshape_68/Reshape", "unknown_135", "unknown_136", "PartitionedCall/model_81/tf.strided_slice_83/ones_like"], "attr": {"shrink_axis_mask": {"i": "0"}, "new_axis_mask": {"i": "0"}, "Index": {"type": "DT_INT64"}, "begin_mask": {"i": "7"}, "end_mask": {"i": "5"}, "T": {"type": "DT_FLOAT"}, "ellipsis_mask": {"i": "0"}}}, {"name": "PartitionedCall/model_81/tf.math.add_356/Add", "op": "AddV2", "input": ["PartitionedCall/model_81/tf.strided_slice_84/StridedSlice", "unknown_137"], "attr": {"T": {"type": "DT_FLOAT"}}}, {"name": "PartitionedCall/model_81/tf.math.subtract_6/Sub", "op": "Sub", "input": ["unknown_138", "PartitionedCall/model_81/tf.strided_slice_83/StridedSlice"], "attr": {"T": {"type": "DT_FLOAT"}}}, {"name": "PartitionedCall/model_81/tf.math.add_357/Add", "op": "AddV2", "input": ["PartitionedCall/model_81/tf.math.subtract_6/Sub", "PartitionedCall/model_81/tf.math.add_356/Add"], "attr": {"T": {"type": "DT_FLOAT"}}}, {"name": "PartitionedCall/model_81/tf.math.subtract_7/Sub", "op": "Sub", "input": ["PartitionedCall/model_81/tf.math.add_356/Add", "PartitionedCall/model_81/tf.math.subtract_6/Sub"], "attr": {"T": {"type": "DT_FLOAT"}}}, {"name": "PartitionedCall/model_81/tf.math.divide_3/truediv", "op": "Mul", "input": ["PartitionedCall/model_81/tf.math.add_357/Add", "ConstantFolding/PartitionedCall/model_81/tf.math.divide_3/truediv_recip"], "attr": {"T": {"type": "DT_FLOAT"}}}, {"name": "PartitionedCall/model_81/tf.concat_86/concat", "op": "ConcatV2", "input": ["PartitionedCall/model_81/tf.math.divide_3/truediv", "PartitionedCall/model_81/tf.math.subtract_7/Sub", "PartitionedCall/model_81/tf.concat_86/concat/axis"], "attr": {"N": {"i": "2"}, "T": {"type": "DT_FLOAT"}, "Tidx": {"type": "DT_INT32"}}}, {"name": "PartitionedCall/model_81/tf.math.multiply_1112/Mul", "op": "Mul", "input": ["PartitionedCall/model_81/tf.concat_86/concat", "PartitionedCall/model_81/tf.math.multiply_1112/Mul/y"], "attr": {"T": {"type": "DT_FLOAT"}}}, {"name": "PartitionedCall/model_81/output0/concat", "op": "ConcatV2", "input": ["PartitionedCall/model_81/tf.math.multiply_1112/Mul", "PartitionedCall/model_81/tf.math.sigmoid_251/Sigmoid", "PartitionedCall/model_81/output0/concat/axis"], "attr": {"N": {"i": "2"}, "Tidx": {"type": "DT_INT32"}, "T": {"type": "DT_FLOAT"}}}, {"name": "Identity", "op": "Identity", "input": ["PartitionedCall/model_81/output0/concat"], "attr": {"T": {"type": "DT_FLOAT"}}}], "library": {}, "versions": {"producer": 1994}}, "weightsManifest": [{"paths": ["group1-shard1of4.bin", "group1-shard2of4.bin", "group1-shard3of4.bin", "group1-shard4of4.bin"], "weights": [{"name": "ConstantFolding/PartitionedCall/model_81/tf.math.divide_3/truediv_recip", "shape": [], "dtype": "float32"}, {"name": "unknown_133", "shape": [3], "dtype": "int32"}, {"name": "unknown_134", "shape": [3], "dtype": "int32"}, {"name": "PartitionedCall/model_81/tf.strided_slice_84/ones_like", "shape": [3], "dtype": "int32"}, {"name": "unknown_137", "shape": [1, 2, 2100], "dtype": "float32"}, {"name": "unknown_138", "shape": [1, 2, 2100], "dtype": "float32"}, {"name": "PartitionedCall/model_81/tf.strided_slice_81/StridedSlice/begin", "shape": [3], "dtype": "int32"}, {"name": "PartitionedCall/model_81/tf.strided_slice_81/StridedSlice/end", "shape": [3], "dtype": "int32"}, {"name": "PartitionedCall/model_81/tf.strided_slice_81/ones_like", "shape": [3], "dtype": "int32"}, {"name": "PartitionedCall/model_81/tf.reshape_65/Reshape/shape", "shape": [4], "dtype": "int32"}, {"name": "PartitionedCall/model_81/tf.compat.v1.transpose_416/transpose/perm", "shape": [4], "dtype": "int32"}, {"name": "PartitionedCall/model_81/tf.compat.v1.transpose_417/transpose/perm", "shape": [4], "dtype": "int32"}, {"name": "unknown_132", "shape": [1, 1, 16, 1], "dtype": "float32"}, {"name": "PartitionedCall/model_81/tf.compat.v1.transpose_422/transpose/perm", "shape": [4], "dtype": "int32"}, {"name": "PartitionedCall/model_81/tf.reshape_68/Reshape/shape", "shape": [3], "dtype": "int32"}, {"name": "unknown_135", "shape": [3], "dtype": "int32"}, {"name": "unknown_136", "shape": [3], "dtype": "int32"}, {"name": "PartitionedCall/model_81/tf.strided_slice_83/ones_like", "shape": [3], "dtype": "int32"}, {"name": "PartitionedCall/model_81/tf.concat_86/concat/axis", "shape": [], "dtype": "int32"}, {"name": "PartitionedCall/model_81/tf.math.multiply_1112/Mul/y", "shape": [1, 1, 2100], "dtype": "float32"}, {"name": "unknown_101", "shape": [3, 3, 64, 64], "dtype": "float32"}, {"name": "unknown_107", "shape": [64], "dtype": "float32"}, {"name": "unknown_113", "shape": [3, 3, 64, 64], "dtype": "float32"}, {"name": "unknown_119", "shape": [64], "dtype": "float32"}, {"name": "unknown_125", "shape": [1, 1, 64, 64], "dtype": "float32"}, {"name": "unknown_130", "shape": [64], "dtype": "float32"}, {"name": "unknown_100", "shape": [3, 3, 64, 80], "dtype": "float32"}, {"name": "unknown_106", "shape": [80], "dtype": "float32"}, {"name": "unknown_112", "shape": [3, 3, 80, 80], "dtype": "float32"}, {"name": "unknown_118", "shape": [80], "dtype": "float32"}, {"name": "unknown_124", "shape": [1, 1, 80, 80], "dtype": "float32"}, {"name": "unknown_131", "shape": [80], "dtype": "float32"}, {"name": "PartitionedCall/model_81/tf.concat_76/concat/axis", "shape": [], "dtype": "int32"}, {"name": "PartitionedCall/model_81/tf.compat.v1.transpose_383/transpose/perm", "shape": [4], "dtype": "int32"}, {"name": "PartitionedCall/model_81/tf.reshape_56/Reshape/shape", "shape": [3], "dtype": "int32"}, {"name": "unknown_99", "shape": [3, 3, 128, 64], "dtype": "float32"}, {"name": "unknown_105", "shape": [64], "dtype": "float32"}, {"name": "unknown_111", "shape": [3, 3, 64, 64], "dtype": "float32"}, {"name": "unknown_117", "shape": [64], "dtype": "float32"}, {"name": "unknown_123", "shape": [1, 1, 64, 64], "dtype": "float32"}, {"name": "unknown_128", "shape": [64], "dtype": "float32"}, {"name": "unknown_98", "shape": [3, 3, 128, 80], "dtype": "float32"}, {"name": "unknown_104", "shape": [80], "dtype": "float32"}, {"name": "unknown_110", "shape": [3, 3, 80, 80], "dtype": "float32"}, {"name": "unknown_116", "shape": [80], "dtype": "float32"}, {"name": "unknown_122", "shape": [1, 1, 80, 80], "dtype": "float32"}, {"name": "unknown_129", "shape": [80], "dtype": "float32"}, {"name": "PartitionedCall/model_81/tf.concat_79/concat/axis", "shape": [], "dtype": "int32"}, {"name": "PartitionedCall/model_81/tf.compat.v1.transpose_397/transpose/perm", "shape": [4], "dtype": "int32"}, {"name": "PartitionedCall/model_81/tf.reshape_59/Reshape/shape", "shape": [3], "dtype": "int32"}, {"name": "unknown_97", "shape": [3, 3, 256, 64], "dtype": "float32"}, {"name": "unknown_103", "shape": [64], "dtype": "float32"}, {"name": "unknown_109", "shape": [3, 3, 64, 64], "dtype": "float32"}, {"name": "unknown_115", "shape": [64], "dtype": "float32"}, {"name": "unknown_121", "shape": [1, 1, 64, 64], "dtype": "float32"}, {"name": "unknown_126", "shape": [64], "dtype": "float32"}, {"name": "PartitionedCall/model_81/tf.strided_slice_79/StridedSlice/begin", "shape": [4], "dtype": "int32"}, {"name": "PartitionedCall/model_81/tf.strided_slice_79/StridedSlice/end", "shape": [4], "dtype": "int32"}, {"name": "PartitionedCall/model_81/tf.strided_slice_79/ones_like", "shape": [4], "dtype": "int32"}, {"name": "PartitionedCall/model_81/tf.strided_slice_77/StridedSlice/begin", "shape": [4], "dtype": "int32"}, {"name": "PartitionedCall/model_81/tf.strided_slice_77/StridedSlice/end", "shape": [4], "dtype": "int32"}, {"name": "PartitionedCall/model_81/tf.strided_slice_77/ones_like", "shape": [4], "dtype": "int32"}, {"name": "PartitionedCall/model_81/tf.strided_slice_75/StridedSlice/begin", "shape": [4], "dtype": "int32"}, {"name": "PartitionedCall/model_81/tf.strided_slice_75/StridedSlice/end", "shape": [4], "dtype": "int32"}, {"name": "PartitionedCall/model_81/tf.strided_slice_75/ones_like", "shape": [4], "dtype": "int32"}, {"name": "PartitionedCall/model_81/tf.image.resize_7/resize/size", "shape": [2], "dtype": "int32"}, {"name": "PartitionedCall/model_81/tf.concat_73/concat/axis", "shape": [], "dtype": "int32"}, {"name": "unknown_66", "shape": [1, 1, 192, 64], "dtype": "float32"}, {"name": "unknown_67", "shape": [64], "dtype": "float32"}, {"name": "PartitionedCall/model_81/tf.strided_slice_76/StridedSlice/begin", "shape": [4], "dtype": "int32"}, {"name": "PartitionedCall/model_81/tf.strided_slice_76/StridedSlice/end", "shape": [4], "dtype": "int32"}, {"name": "PartitionedCall/model_81/tf.strided_slice_76/ones_like", "shape": [4], "dtype": "int32"}, {"name": "unknown_68", "shape": [3, 3, 32, 32], "dtype": "float32"}, {"name": "unknown_69", "shape": [32], "dtype": "float32"}, {"name": "unknown_70", "shape": [3, 3, 32, 32], "dtype": "float32"}, {"name": "unknown_71", "shape": [32], "dtype": "float32"}, {"name": "PartitionedCall/model_81/tf.concat_74/concat/axis", "shape": [], "dtype": "int32"}, {"name": "unknown_72", "shape": [1, 1, 96, 64], "dtype": "float32"}, {"name": "unknown_73", "shape": [64], "dtype": "float32"}, {"name": "unknown_74", "shape": [4, 2], "dtype": "int32"}, {"name": "unknown_75", "shape": [3, 3, 64, 64], "dtype": "float32"}, {"name": "unknown_76", "shape": [64], "dtype": "float32"}, {"name": "PartitionedCall/model_81/tf.strided_slice_73/StridedSlice/begin", "shape": [4], "dtype": "int32"}, {"name": "PartitionedCall/model_81/tf.strided_slice_73/StridedSlice/end", "shape": [4], "dtype": "int32"}, {"name": "PartitionedCall/model_81/tf.strided_slice_73/ones_like", "shape": [4], "dtype": "int32"}, {"name": "PartitionedCall/model_81/tf.image.resize_6/resize/size", "shape": [2], "dtype": "int32"}, {"name": "PartitionedCall/model_81/tf.concat_71/concat/axis", "shape": [], "dtype": "int32"}, {"name": "unknown_58", "shape": [1, 1, 384, 128], "dtype": "float32"}, {"name": "unknown_59", "shape": [128], "dtype": "float32"}, {"name": "PartitionedCall/model_81/tf.strided_slice_74/StridedSlice/begin", "shape": [4], "dtype": "int32"}, {"name": "PartitionedCall/model_81/tf.strided_slice_74/StridedSlice/end", "shape": [4], "dtype": "int32"}, {"name": "PartitionedCall/model_81/tf.strided_slice_74/ones_like", "shape": [4], "dtype": "int32"}, {"name": "unknown_60", "shape": [3, 3, 64, 64], "dtype": "float32"}, {"name": "unknown_61", "shape": [64], "dtype": "float32"}, {"name": "unknown_62", "shape": [3, 3, 64, 64], "dtype": "float32"}, {"name": "unknown_63", "shape": [64], "dtype": "float32"}, {"name": "PartitionedCall/model_81/tf.concat_72/concat/axis", "shape": [], "dtype": "int32"}, {"name": "unknown_64", "shape": [1, 1, 192, 128], "dtype": "float32"}, {"name": "unknown_65", "shape": [128], "dtype": "float32"}, {"name": "PartitionedCall/model_81/tf.concat_75/concat/axis", "shape": [], "dtype": "int32"}, {"name": "unknown_77", "shape": [1, 1, 192, 128], "dtype": "float32"}, {"name": "unknown_78", "shape": [128], "dtype": "float32"}, {"name": "PartitionedCall/model_81/tf.strided_slice_78/StridedSlice/begin", "shape": [4], "dtype": "int32"}, {"name": "PartitionedCall/model_81/tf.strided_slice_78/StridedSlice/end", "shape": [4], "dtype": "int32"}, {"name": "PartitionedCall/model_81/tf.strided_slice_78/ones_like", "shape": [4], "dtype": "int32"}, {"name": "unknown_79", "shape": [3, 3, 64, 64], "dtype": "float32"}, {"name": "unknown_80", "shape": [64], "dtype": "float32"}, {"name": "unknown_81", "shape": [3, 3, 64, 64], "dtype": "float32"}, {"name": "unknown_82", "shape": [64], "dtype": "float32"}, {"name": "PartitionedCall/model_81/tf.concat_77/concat/axis", "shape": [], "dtype": "int32"}, {"name": "unknown_83", "shape": [1, 1, 192, 128], "dtype": "float32"}, {"name": "unknown_84", "shape": [128], "dtype": "float32"}, {"name": "unknown_85", "shape": [4, 2], "dtype": "int32"}, {"name": "unknown_86", "shape": [3, 3, 128, 128], "dtype": "float32"}, {"name": "unknown_87", "shape": [128], "dtype": "float32"}, {"name": "PartitionedCall/model_81/tf.strided_slice_71/StridedSlice/begin", "shape": [4], "dtype": "int32"}, {"name": "PartitionedCall/model_81/tf.strided_slice_71/StridedSlice/end", "shape": [4], "dtype": "int32"}, {"name": "PartitionedCall/model_81/tf.strided_slice_71/ones_like", "shape": [4], "dtype": "int32"}, {"name": "PartitionedCall/model_81/tf.strided_slice_69/StridedSlice/begin", "shape": [4], "dtype": "int32"}, {"name": "PartitionedCall/model_81/tf.strided_slice_69/StridedSlice/end", "shape": [4], "dtype": "int32"}, {"name": "PartitionedCall/model_81/tf.strided_slice_69/ones_like", "shape": [4], "dtype": "int32"}, {"name": "PartitionedCall/model_81/tf.strided_slice_67/StridedSlice/begin", "shape": [4], "dtype": "int32"}, {"name": "PartitionedCall/model_81/tf.strided_slice_67/StridedSlice/end", "shape": [4], "dtype": "int32"}, {"name": "PartitionedCall/model_81/tf.strided_slice_67/ones_like", "shape": [4], "dtype": "int32"}, {"name": "PartitionedCall/model_81/tf.strided_slice_65/StridedSlice/begin", "shape": [4], "dtype": "int32"}, {"name": "PartitionedCall/model_81/tf.strided_slice_65/StridedSlice/end", "shape": [4], "dtype": "int32"}, {"name": "PartitionedCall/model_81/tf.strided_slice_65/ones_like", "shape": [4], "dtype": "int32"}, {"name": "unknown", "shape": [4, 2], "dtype": "int32"}, {"name": "unknown_0", "shape": [3, 3, 3, 16], "dtype": "float32"}, {"name": "unknown_1", "shape": [16], "dtype": "float32"}, {"name": "unknown_2", "shape": [4, 2], "dtype": "int32"}, {"name": "unknown_3", "shape": [3, 3, 16, 32], "dtype": "float32"}, {"name": "unknown_4", "shape": [32], "dtype": "float32"}, {"name": "unknown_5", "shape": [1, 1, 32, 32], "dtype": "float32"}, {"name": "unknown_6", "shape": [32], "dtype": "float32"}, {"name": "PartitionedCall/model_81/tf.strided_slice_66/StridedSlice/begin", "shape": [4], "dtype": "int32"}, {"name": "PartitionedCall/model_81/tf.strided_slice_66/StridedSlice/end", "shape": [4], "dtype": "int32"}, {"name": "PartitionedCall/model_81/tf.strided_slice_66/ones_like", "shape": [4], "dtype": "int32"}, {"name": "unknown_7", "shape": [3, 3, 16, 16], "dtype": "float32"}, {"name": "unknown_8", "shape": [16], "dtype": "float32"}, {"name": "unknown_9", "shape": [3, 3, 16, 16], "dtype": "float32"}, {"name": "unknown_10", "shape": [16], "dtype": "float32"}, {"name": "PartitionedCall/model_81/tf.concat_66/concat/axis", "shape": [], "dtype": "int32"}, {"name": "unknown_11", "shape": [1, 1, 48, 32], "dtype": "float32"}, {"name": "unknown_12", "shape": [32], "dtype": "float32"}, {"name": "unknown_13", "shape": [4, 2], "dtype": "int32"}, {"name": "unknown_14", "shape": [3, 3, 32, 64], "dtype": "float32"}, {"name": "unknown_15", "shape": [64], "dtype": "float32"}, {"name": "unknown_16", "shape": [1, 1, 64, 64], "dtype": "float32"}, {"name": "unknown_17", "shape": [64], "dtype": "float32"}, {"name": "PartitionedCall/model_81/tf.strided_slice_68/StridedSlice/begin", "shape": [4], "dtype": "int32"}, {"name": "PartitionedCall/model_81/tf.strided_slice_68/StridedSlice/end", "shape": [4], "dtype": "int32"}, {"name": "PartitionedCall/model_81/tf.strided_slice_68/ones_like", "shape": [4], "dtype": "int32"}, {"name": "unknown_18", "shape": [3, 3, 32, 32], "dtype": "float32"}, {"name": "unknown_19", "shape": [32], "dtype": "float32"}, {"name": "unknown_20", "shape": [3, 3, 32, 32], "dtype": "float32"}, {"name": "unknown_21", "shape": [32], "dtype": "float32"}, {"name": "unknown_22", "shape": [3, 3, 32, 32], "dtype": "float32"}, {"name": "unknown_23", "shape": [32], "dtype": "float32"}, {"name": "unknown_24", "shape": [3, 3, 32, 32], "dtype": "float32"}, {"name": "unknown_25", "shape": [32], "dtype": "float32"}, {"name": "PartitionedCall/model_81/tf.concat_67/concat/axis", "shape": [], "dtype": "int32"}, {"name": "unknown_26", "shape": [1, 1, 128, 64], "dtype": "float32"}, {"name": "unknown_27", "shape": [64], "dtype": "float32"}, {"name": "unknown_28", "shape": [4, 2], "dtype": "int32"}, {"name": "unknown_29", "shape": [3, 3, 64, 128], "dtype": "float32"}, {"name": "unknown_30", "shape": [128], "dtype": "float32"}, {"name": "unknown_31", "shape": [1, 1, 128, 128], "dtype": "float32"}, {"name": "unknown_32", "shape": [128], "dtype": "float32"}, {"name": "PartitionedCall/model_81/tf.strided_slice_70/StridedSlice/begin", "shape": [4], "dtype": "int32"}, {"name": "PartitionedCall/model_81/tf.strided_slice_70/StridedSlice/end", "shape": [4], "dtype": "int32"}, {"name": "PartitionedCall/model_81/tf.strided_slice_70/ones_like", "shape": [4], "dtype": "int32"}, {"name": "unknown_33", "shape": [3, 3, 64, 64], "dtype": "float32"}, {"name": "unknown_34", "shape": [64], "dtype": "float32"}, {"name": "unknown_35", "shape": [3, 3, 64, 64], "dtype": "float32"}, {"name": "unknown_36", "shape": [64], "dtype": "float32"}, {"name": "unknown_37", "shape": [3, 3, 64, 64], "dtype": "float32"}, {"name": "unknown_38", "shape": [64], "dtype": "float32"}, {"name": "unknown_39", "shape": [3, 3, 64, 64], "dtype": "float32"}, {"name": "unknown_40", "shape": [64], "dtype": "float32"}, {"name": "PartitionedCall/model_81/tf.concat_68/concat/axis", "shape": [], "dtype": "int32"}, {"name": "unknown_41", "shape": [1, 1, 256, 128], "dtype": "float32"}, {"name": "unknown_42", "shape": [128], "dtype": "float32"}, {"name": "unknown_43", "shape": [4, 2], "dtype": "int32"}, {"name": "unknown_44", "shape": [3, 3, 128, 256], "dtype": "float32"}, {"name": "unknown_45", "shape": [256], "dtype": "float32"}, {"name": "unknown_46", "shape": [1, 1, 256, 256], "dtype": "float32"}, {"name": "unknown_47", "shape": [256], "dtype": "float32"}, {"name": "PartitionedCall/model_81/tf.strided_slice_72/StridedSlice/begin", "shape": [4], "dtype": "int32"}, {"name": "PartitionedCall/model_81/tf.strided_slice_72/StridedSlice/end", "shape": [4], "dtype": "int32"}, {"name": "PartitionedCall/model_81/tf.strided_slice_72/ones_like", "shape": [4], "dtype": "int32"}, {"name": "unknown_48", "shape": [3, 3, 128, 128], "dtype": "float32"}, {"name": "unknown_49", "shape": [128], "dtype": "float32"}, {"name": "unknown_50", "shape": [3, 3, 128, 128], "dtype": "float32"}, {"name": "unknown_51", "shape": [128], "dtype": "float32"}, {"name": "PartitionedCall/model_81/tf.concat_69/concat/axis", "shape": [], "dtype": "int32"}, {"name": "unknown_52", "shape": [1, 1, 384, 256], "dtype": "float32"}, {"name": "unknown_53", "shape": [256], "dtype": "float32"}, {"name": "unknown_54", "shape": [1, 1, 256, 128], "dtype": "float32"}, {"name": "unknown_55", "shape": [128], "dtype": "float32"}, {"name": "PartitionedCall/model_81/tf.concat_70/concat/axis", "shape": [], "dtype": "int32"}, {"name": "unknown_56", "shape": [1, 1, 512, 256], "dtype": "float32"}, {"name": "unknown_57", "shape": [256], "dtype": "float32"}, {"name": "PartitionedCall/model_81/tf.concat_78/concat/axis", "shape": [], "dtype": "int32"}, {"name": "unknown_88", "shape": [1, 1, 384, 256], "dtype": "float32"}, {"name": "unknown_89", "shape": [256], "dtype": "float32"}, {"name": "PartitionedCall/model_81/tf.strided_slice_80/StridedSlice/begin", "shape": [4], "dtype": "int32"}, {"name": "PartitionedCall/model_81/tf.strided_slice_80/StridedSlice/end", "shape": [4], "dtype": "int32"}, {"name": "PartitionedCall/model_81/tf.strided_slice_80/ones_like", "shape": [4], "dtype": "int32"}, {"name": "unknown_90", "shape": [3, 3, 128, 128], "dtype": "float32"}, {"name": "unknown_91", "shape": [128], "dtype": "float32"}, {"name": "unknown_92", "shape": [3, 3, 128, 128], "dtype": "float32"}, {"name": "unknown_93", "shape": [128], "dtype": "float32"}, {"name": "PartitionedCall/model_81/tf.concat_80/concat/axis", "shape": [], "dtype": "int32"}, {"name": "unknown_94", "shape": [1, 1, 384, 256], "dtype": "float32"}, {"name": "unknown_95", "shape": [256], "dtype": "float32"}, {"name": "unknown_96", "shape": [3, 3, 256, 80], "dtype": "float32"}, {"name": "unknown_102", "shape": [80], "dtype": "float32"}, {"name": "unknown_108", "shape": [3, 3, 80, 80], "dtype": "float32"}, {"name": "unknown_114", "shape": [80], "dtype": "float32"}, {"name": "unknown_120", "shape": [1, 1, 80, 80], "dtype": "float32"}, {"name": "unknown_127", "shape": [80], "dtype": "float32"}, {"name": "PartitionedCall/model_81/tf.concat_81/concat/axis", "shape": [], "dtype": "int32"}, {"name": "PartitionedCall/model_81/tf.compat.v1.transpose_409/transpose/perm", "shape": [4], "dtype": "int32"}, {"name": "PartitionedCall/model_81/tf.reshape_62/Reshape/shape", "shape": [3], "dtype": "int32"}, {"name": "PartitionedCall/model_81/tf.concat_82/concat/axis", "shape": [], "dtype": "int32"}, {"name": "PartitionedCall/model_81/tf.strided_slice_82/StridedSlice/begin", "shape": [3], "dtype": "int32"}, {"name": "PartitionedCall/model_81/tf.strided_slice_82/StridedSlice/end", "shape": [3], "dtype": "int32"}, {"name": "PartitionedCall/model_81/tf.strided_slice_82/ones_like", "shape": [3], "dtype": "int32"}, {"name": "PartitionedCall/model_81/output0/concat/axis", "shape": [], "dtype": "int32"}]}]}